96_96_actor.pth (torch_old, 57796 bytes, 18 tensors)

bn0.weight f4 [33]
00000000: f966 473f f81f bb3e fdb0 473f 55e4 403e
00000010: c1aa d5bd 4072 133e 28e7 85bd 91ec 8a3d
00000020: 213e 933d 4f05 953d c861 c03d 8138 fd3d
00000030: 6188 023e 7334 9a3f 5399 133f ee22 853f
00000040: 819f a23d 3677 8a3d b151 753d 3a52 a33d
00000050: 613b d13d 0929 743d 5d8c 583d 0def cc3e
00000060: 4927 983e 455c c2be 53ca 973f 292d 583f
00000070: cbfd 843f b40e 973e 7c5f f43e 7218 f53e
00000080: bd64 963f
0.778915 0.36547828 0.7800444 0.18837102 -0.10432959 0.14399052 -0.0653823 0.06783403
0.071895845 0.07276403 0.0939365 0.12364293 0.12747337 1.2047256 0.5765583 1.0401285
0.07940579 0.06761019 0.05989236 0.07974668 0.10216404 0.059609447 0.052868236 0.4002613
0.29717472 -0.3796102 1.185862 0.8444391 1.0389951 0.29503405 0.477291 0.47870213
1.1749493

bn0.bias f4 [33]
00000000: b369 23bb 319c 133b 8991 97ba 4132 cfba
00000010: 9d97 873b 3830 ad38 e414 98bb 004d 693b
00000020: f62f 8b3a 4b9e 9cbb b82b a93b 5696 2dbb
00000030: 8801 34bb 02ef 8abb ebe0 453c dd33 113c
00000040: 556e 4f3b 8b4d 8c3b 5c71 7b3a b816 cbbb
00000050: afa0 56bb 1d39 4aba b97b b2bb d99c 2bbc
00000060: 2b61 ebbb 0b9e ec3b 764e d83b bf73 ed3a
00000070: 9146 61bc e518 8cba f751 ba3a 3fbe deba
00000080: eda7 253c
-0.0024934828 0.0022523517 -0.0011563759 -0.0015807824 0.0041379468 8.258264e-05 -0.004641162 0.0035598874
0.0010619152 -0.004779612 0.0051626824 -0.0026487312 -0.0027466733 -0.0042399177 0.01207755 0.008862463
0.0031651456 0.004281705 0.0009591782 -0.0061977766 -0.0032749583 -0.0007714199 -0.005446878 -0.010474407
-0.007183214 0.0072209886 0.00660115 0.001811616 -0.0137497345 -0.0010688571 0.0014215101 -0.0016993954
0.010110837

bn0.running_mean f4 [33]
00000000: 0d2c 61be a8df 30c0 104e b8bd 2c1a 5b3f
00000010: 1bd4 dbbc 9591 82bb 1b70 dbbb 6c4e d7ba
00000020: daa1 9fb9 ee20 673a 169d 31bc c8d5 7b3c
00000030: df07 babb afa7 c9be 0979 2ec0 37e5 3fbd
00000040: fa98 ee3b e9db 883c 9a4e 4d3b 07bd 3d3e
00000050: 84e7 01bd 7321 853c b4e5 c7bb 6f89 443c
00000060: c1ae 123e 3061 36bb 4801 65bb fcff 7fbf
00000070: 569e 043d 0000 0000 fcff 7f3f 0000 0000
00000080: ff75 97bc
-0.2198946 -2.763651 -0.08999264 0.8558681 -0.026834538 -0.00398464 -0.0066967136 -0.001642657
-0.00030447432 0.00088168576 -0.010840675 0.015370794 -0.005677208 -0.39385745 -2.7261374 -0.046849456
0.00728142 0.016706424 0.0031327368 0.1852914 -0.03171493 0.016251301 -0.006100381 0.011995657
0.14324476 -0.0027828924 -0.003494339 -0.99999976 0.032377563 0.0 0.99999976 0.0
-0.018488882

bn0.running_var f4 [33]
00000000: e1c1 7d40 1896 ca3e 87db 7f40 1220 d53d
00000010: 9330 863d a7e8 1e3c f76c b33d 1c44 8b3e
00000020: fa9d 833d 2f69 163e 97b9 2c40 8b75 873f
00000030: 2525 2740 5342 8641 1117 ae3f 610b a541
00000040: fd89 aa3d bfe0 623e d0b2 833d 245e 183f
00000050: 98f6 b13f 5a9c e63e 6795 213f 8fa0 da40
00000060: f230 8440 5f84 0c41 0442 0042 0400 0000
00000070: a8a2 ff41 0400 0000 0400 0000 0400 0000
00000080: cd6d b33e
3.9649584 0.39567637 3.997774 0.104065076 0.065522335 0.009699023 0.08761018 0.272004
0.06426616 0.14688562 2.6988275 1.0582746 2.6116421 16.782385 1.3600789 20.630556
0.083271004 0.22156046 0.0643059 0.5951865 1.390338 0.45041162 0.63118595 6.8320994
4.130975 8.782317 32.06447 6e-45 31.954422 6e-45 6e-45 6e-45
0.3504471

fc1.weight f4 [96, 33]
00000000: 2b05 d4bd cd32 bebe 4517 9abe 6247 40be
00000010: 9287 5abe 29f2 f7be 2e4b b53e d61e 3bbe
00000020: e8ae 203e 04bb 063e 41a8 17bd 4d5b cebe
00000030: 3dac b53d 6b9d 14be 9e52 ae3d f535 70be
00000040: 55c0 793e 4eaf 7f3d 6de2 3dbe fdec 28bf
00000050: aba4 bf3e 502d 743e b01d 633c 37cb 283e
00000060: 558c fe3c 130d febe 15ff b13e 8063 ccbd
00000070: 5207 a63f 02bc 8cbb 923c 86bd 9dc7 09bd
00000080: 8ae5 17be 5224 f23e 72a7 25be c51a c83d
00000090: a28f e23d 0f40 983e 2be7 363c 1f15 82bd
000000a0: 50ef 0f3e 9ba9 833d 92ed 143f e5e5 d13b
000000b0: bdc3 e9bd 27df 1c3e 11e8 de3d 5faa 013f
000000c0: 568c f1be de36 db3e e073 ff3d 81c1 90bd
000000d0: ab1f 49bd 64d4 213b 5c1b 2fbe abf9 583e
000000e0: 346d 4ebe cd31 a13e a7ba 6a3b a7ba 65bf
000000f0: 2ca1 64bd e0e1 9f3e 7c90 c5bc 624a 27bc
00000100: f068 d63c 7977 de3e 71f4 f43e 4ef5 3c3e
00000110: 3000 1b3d 29a4 cd3c 6cf5 f1bd bbc7 adbe
00000120: 881a b8be 1e3a 1c3e 4260 2abd 852b b13e
00000130: b449 8a3e b426 9f3d a899 79be a7a9 1f3d
00000140: 4498 c63c 952b 283f 7aba de3d d14a 36be
00000150: 912d 63be f0b5 883e aafa 803e 89d4 78be
00000160: c72a 46be 51b5 033e bc42 443e 9f71 4dbe
00000170: 3d05 99be 219c d43c 915e 6cbf f798 71bd
00000180: ccbe aabd 0e60 ae3d 1e3d 1bbf 6d7e fcbd
00000190: 4523 85be b8ef 9cbe d67a 97be 5781 7b3e
000001a0: 1519 3b3e 29b5 8e3e 8905 f3be 159f 123f
000001b0: 73cf c73d 1f5e ca3e 7859 18bf e1c1 5d3d
000001c0: a876 233f 0c3e a63e d3e0 3bbe 2e87 6b3e
000001d0: 213a 283d d198 a93e fe8d 12be 100b 213e
000001e0: 8a7b ad3e 6e77 32bf c8e0 343f 6191 ed3d
000001f0: 5be6 42bf 4824 27be 161f 043d 7d04 263f
00000200: e725 273d 8b5c 8abb 9731 0e3d dfba 51bd
00000210: 5278 4d3f face 0ebe e826 e53e 1f91 bc3e
00000220: 1385 083f c18e 373f a055 e2be 0d15 d0be
00000230: 13d2 ebbd 32b8 f1bc dfc8 4f3e 9a0a 92be
00000240: 9850 463e 72fd 20bb 6d09 c5be 6518 09bf
00000250: 3cee b53e 8ca4 bbbe 76e3 a43d 0db8 0abf
00000260: a3cb 823e 09c2 d9bd e3ef 0e3e 6f91 e23d
00000270: f3e5 8dbe a2e3 10bf c189 cbbe 4acd f6ba
00000280: 6c0f 2cbe 112a c5bd 43f4 7cbd f3df c63c
00000290: 75e9 04bf 3eed 46bf 8112 903d 98e1 46bf
000002a0: 2fff 00be 99c3 dfbe ca82 0abd a780 01be
000002b0: 03c9 00be 9caa 4f3e e5cf 64be c360 a4be
000002c0: af05 84bd fb7b 34be 3cc7 04be edac fabd
000002d0: c507 693f 11c4 a9be 5763 8b3e 6010 22be
000002e0: a576 553e ffd7 1ebc 898c 86be c512 8bbe
000002f0: 7cd3 0b3e 822a 9ebe fa6f bbbe 7011 063f
00000300: 7056 68bd 6c17 a6be 454d f2bb 3ef3 b7bc
00000310: 6b78 59bc 1865 dc3d 9c06 cebe 71d3 cd3e
00000320: 3cf1 3e3e be35 5abf 466e 903e 930c ac3d
00000330: 842d 70bd 6ab1 5e3e d655 1ebf 5562 dfbe
00000340: c28e 9cbe 4f62 99be 103f 243c ec72 d43d
00000350: 961e b2be c47b 3d3e f0c9 00be 665e 97be
00000360: 63f6 8c3e 782f 923e 49a8 96be a05c af3e
00000370: 55c5 49bd d159 0d3d c31c dbbd ffb0 403d
00000380: 0956 be3e 89d0 7abd 81ba 41bf 1a9a 0cbd
00000390: f3d2 75bd 6e7b 033d d7a8 8d3f 3e87 1bbe
000003a0: 4511 a53d 91c1 7e3f a00f 47be 57c6 8f3e
000003b0: b63f a43e 2360 d0bd df61 cfbe 08a3 f1be
000003c0: 9ef6 ce3b d1ff e9be e58a 80be 305b e03e
000003d0: 9f1e 27be db1d f0be 819c 40bf fd54 cebe
000003e0: bd7c 263e 31c4 76be 5f01 f7be c212 2dbe
000003f0: d0f1 143e 7659 26bc df1f 0ebf a7ba 37bf
-0.10352548 -0.37148133 -0.30095878 -0.1877723 -0.21340778 -0.4842694 0.3540892 -0.18273482
0.15691721 0.13157278 -0.037025694 -0.40304032 0.088707425 -0.14513175 0.08511852 -0.23458083
0.24389775 0.062423043 -0.18543406 -0.65986615 0.3743032 0.2384541 0.0138620585 0.1648377
0.031072775 -0.4961935 0.34764925 -0.099799156 1.2970984 -0.004294873 -0.065545216 -0.03363763
-0.14833656 0.47293335 -0.16177157 0.09770731 0.11062552 0.29736373 0.011163513 -0.06351685
0.14056134 0.06428834 0.58175004 0.0064055794 -0.11414287 0.15319501 0.10884107 0.5065059
-0.4717738 0.42815298 0.12473273 -0.07068158 -0.049102467 0.0024693245 -0.1710028 0.21188991
-0.20158845 0.31483307 0.003581682 -0.89737934 -0.055817768 0.31227016 -0.024116747 -0.010210605
0.026173085 0.43450525 0.47842744 0.18452951 0.037841976 0.025102692 -0.11814389 -0.33941445
-0.35957742 0.15256545 -0.041595705 0.34603515 0.27009356 0.07771054 -0.24375021 0.038980152
0.024242528 0.656915 0.10875411 -0.17801978 -0.22185351 0.26701307 0.25191242 -0.24299826
-0.19352256 0.12862135 0.19166082 -0.20062874 -0.2988681 0.025953354 -0.92331797 -0.05898377
-0.08337173 0.08514415 -0.6064013 -0.12328801 -0.2600347 -0.3065164 -0.29585904 0.24561058
0.18271287 0.2787259 -0.4746516 0.5727399 0.09756365 0.39524934 -0.5951152 0.054139975
0.6385293 0.32469213 -0.18347482 0.23000786 0.04107106 0.33124402 -0.14311978 0.15726876
0.33883315 -0.69713485 0.7065549 0.115999945 -0.76132745 -0.16322434 0.03225621 0.648506
0.04080763 -0.0042224578 0.03471526 -0.051203605 0.8026172 -0.13946143 0.44756246 0.3682947
0.53328055 0.717022 -0.44205952 -0.4064106 -0.11514678 -0.029506776 0.2029147 -0.28523713
0.19366682 -0.0024565128 -0.38483754 -0.5355285 0.3553332 -0.36648977 0.08051197 -0.5418709
0.25545987 -0.106327124 0.13958697 0.110628955 -0.277145 -0.5659734 -0.39753535 -0.0018829491
-0.16802758 -0.09627164 -0.061756384 0.02427671 -0.5191873 -0.7770575 0.07034779 -0.7768798
-0.12597345 -0.43703917 -0.033816136 -0.12646733 -0.1257668 0.20279926 -0.2234493 -0.32105073
-0.064463966 -0.1762542 -0.12966627 -0.12240014 0.9102748 -0.331574 0.27224228 -0.15826559
0.2084604 -0.009695052 -0.26279095 -0.27162758 0.13654894 -0.30891806 -0.3660887 0.5237036
-0.05672306 -0.32439744 -0.007394465 -0.022454854 -0.013273339 0.107614696 -0.40239418 0.4020038
0.18646711 -0.85238254 0.28209132 0.08400836 -0.058637157 0.21747366 -0.61849725 -0.4362971
-0.30577666 -0.29957816 0.010024801 0.10373482 -0.3478896 0.18504244 -0.12577033 -0.29564208
0.27531728 0.2855184 -0.29425266 0.34250355 -0.049260456 0.034509484 -0.10698845 0.047043797
0.37175015 -0.06123403 -0.7567521 -0.03432665 -0.06001563 0.032100134 1.1067151 -0.1518831
0.080599345 0.9951411 -0.19439554 0.2808101 0.32079858 -0.101745866 -0.40504357 -0.47194695
0.00631602 -0.45702985 -0.25105968 0.4381957 -0.16320275 -0.46897778 -0.75238806 -0.40299216
0.16258521 -0.24098279 -0.48243234 -0.16901687 0.14545369 -0.010153165 -0.5551738 -0.71769184

fc1.bias f4 [96]
00000000: 78cc 16bd 40eb c83d 13e8 2dbe 7ee0 98bc
00000010: 8711 83bd 660f a8bd 481c f53d 43d8 2bbd
00000020: 183a 27be c99d 1f3e 28a4 b1bd 7ec5 1e3e
00000030: 22c3 28be d5ba a4bd 1175 443c 3a44 c1bd
00000040: ec30 1f3e 584d e13c 9852 243c 20b6 7b3d
00000050: 8b49 8dbd 879a f23d 101e 0c3d a41b 83bd
00000060: 58b3 0fbc c68c 173e b479 12be 4301 8dbc
00000070: 4c5a 123e 5c1a 0a3e db2d 973d 0778 2abe
00000080: 4067 a63c 8bf8 943d 5e84 e33d 0a34 f1bc
00000090: 980c 1a3c 1948 02be 1179 adbd 766d ba3d
000000a0: 1989 103e 154d f73d 0fe0 0fbe 6689 a4bd
000000b0: 2966 113e 2085 f4bd 6ac9 51bd f566 993d
000000c0: 9be4 1ebe aa2e 17bc a98d 0abd 4a08 c7bd
000000d0: cfbe 16be c806 10be 5eae 693c b8d9 2f3d
000000e0: 46f0 773d 74e9 b53d ae85 01be 748d 54bc
000000f0: 0fb4 1dbe ce36 70bd db95 94bd ceec 0e3d
00000100: 6d1c b1bd 7005 c03c 75cd 1e3e 5ccb 603b
00000110: d16a fe3c 79a6 a03d d912 cf3c 991a 0bbc
00000120: 1e1a 303d ed70 953c a9d7 bfbd e608 0bbd
00000130: 644c 3ebd b53c 243d d092 183c 0a33 313d
00000140: 8236 dfbd 0f24 81bd df97 36bc a81b 0e3e
00000150: df12 f6bd 1a65 11be 4721 09be b65e e9bd
00000160: 6cbc 7c3d 1e52 a0bd 42a3 aa3d 9fb2 de3d
00000170: 5db1 19be 9592 0cbe cf43 05be 5a99 0d3d
-0.03681609 0.098104954 -0.1698306 -0.018661734 -0.063998275 -0.08206062 0.11968285 -0.04195429
-0.16330755 0.15587534 -0.086738884 0.15505025 -0.16480687 -0.08043448 0.011990801 -0.09436841
0.15546006 0.0275027 0.0100294575 0.061452985 -0.06898793 0.1184588 0.034208357 -0.064017564
-0.008770786 0.14799795 -0.14304239 -0.017212516 0.14292258 0.13486618 0.07381793 -0.1664735
0.020312905 0.07273968 0.111092314 -0.02944376 0.009402417 -0.12722816 -0.08470357 0.09102909
0.14114799 0.12075249 -0.14050315 -0.08034019 0.14199127 -0.11939454 -0.051217474 0.074903406
-0.15516894 -0.009227434 -0.033826504 -0.09718378 -0.14721225 -0.14065087 0.014262764 0.042932242
0.060531877 0.08882418 -0.12648651 -0.012973178 -0.15400718 -0.058646016 -0.07255145 0.034893803
-0.08648 0.023440093 0.15508063 0.00343009 0.031056793 0.07844252 0.025277542 -0.008490228
0.042993657 0.018242324 -0.09367306 -0.033944033 -0.04645957 0.040096957 0.009312347 0.043261565
-0.108990684 -0.06305706 -0.011144607 0.13877738 -0.12015318 -0.14198723 -0.133916 -0.11395018
0.06170313 -0.078281626 0.0833192 0.10873913 -0.15009065 -0.13727792 -0.13014148 0.034570076

bn1.weight f4 [96]
00000000: ced4 563f 4d48 5b3f fa02 193f 6017 213f
00000010: 6fd5 443f 61ef f83e 4522 513f 808d 1f3f
00000020: 9d60 ee3e 6e54 583f 1001 323f 47fe 053f
00000030: 4e1e 353f bd72 6c3f 8b20 813f c398 2c3f
00000040: 8feb c43e cacf 0d3f 9e20 523f c16d 713f
00000050: b4ae 383f aaa7 233f 3da6 543f c78a 2b3f
00000060: d433 5b3f 8f84 213f cbaf 5b3f b9eb 1a3f
00000070: 001c 9a3f 4eae 41bb 15cb 383f 04f8 483f
00000080: ac11 193b b9d7 193f 59d7 893f 965b 363f
00000090: 2b27 2a3f f970 633f 5158 863f e8d4 813f
000000a0: fadd 1d3f 884b 7b3f 1ffd f73e 7244 3a3f
000000b0: 44ab 403f 2be0 523f ab6e 523f 3dad 413f
000000c0: 6711 d33a f874 283f 74e8 573f 1eab 4c3f
000000d0: e975 613f 08aa 8d3f 7d43 5f3f b78c 9abb
000000e0: 207b df3e cfb0 4e3f a4c9 8a3f 83ee 843f
000000f0: 5556 533f 07e0 443f 3cd1 393f f11b fd3e
00000100: 1c62 163f 0d99 f1be 8ae7 543f 2d9b 103f
00000110: c517 6d3f ae4c 2b3f 2190 1e3f 57c0 1c3f
00000120: 3268 643f 0d8d 413f ecc2 683f 6f4b 1d3f
00000130: 6b77 1b3f c3d5 153f 4282 cd3e bdc9 d23e
00000140: 5dcc 4c3f 31af 663f 0961 213f 7ef8 2f3f
00000150: bad6 483f 4388 243f 8f11 523f da56 9c3f
00000160: cdf0 f83e 3ce0 0e3f 718f 483f d41c 443f
00000170: c974 2d3f bd07 033f 602b 763f beb3 123f
0.83918464 0.856572 0.59770167 0.6292629 0.76888174 0.48620132 0.81692916 0.62325287
0.46558085 0.8450383 0.6953287 0.5234112 0.70749366 0.92362577 1.0088056 0.67420596
0.38460967 0.55395186 0.8208102 0.94308096 0.72141576 0.6392771 0.8306616 0.6700863
0.8562596 0.63092893 0.85815114 0.60515934 1.2039795 -0.0029553357 0.7218488 0.7850344
0.002335648 0.6009479 1.0768844 0.712335 0.66466016 0.8884426 1.0495702 1.0143099
0.61666834 0.98162127 0.48435304 0.7276069 0.7526133 0.82373303 0.82200116 0.75654966
0.0016103209 0.6580348 0.8433907 0.79948604 0.8807054 1.1067514 0.87212354 -0.0047164815
0.43648624 0.8073854 1.0842786 1.0385288 0.8255361 0.7690434 0.7258489 0.4943538
0.58743453 -0.4718708 0.831658 0.5648678 0.92614394 0.6691388 0.61938673 0.6123099
0.8922149 0.7560585 0.9092243 0.6144323 0.6072909 0.585293 0.4013844 0.4116954
0.79999334 0.9011107 0.6303869 0.68738544 0.78452647 0.6427042 0.8205804 1.2214005
0.48621216 0.55810905 0.78343874 0.7660649 0.67756325 0.5118368 0.96159935 0.57305515

bn1.bias f4 [96]
00000000: 996c d7be 8db8 1dbf 97ef 87be 3b3f adbe
00000010: ab12 32bf a922 493e d70e de3d a243 d5bd
00000020: 9c2d abbe d9ab 2ebf ad8d c3be 89f1 cdbe
00000030: 2de4 1b3e 30a9 52bf 23da 71bf ee74 c8be
00000040: 3340 e33e 4c41 b2bd 6fc5 3bbd 4134 17bf
00000050: 1069 25be ad56 c3be 149e 08bf cf66 babe
00000060: 606e fdbd f9f6 7a3d f0c7 37bf a2da e5be
00000070: 126a 79be 2d16 74bd c430 eebe 6779 6cbf
00000080: 1830 c0bc 32fd fcbe 5c87 e6be 8f96 89be
00000090: 4ab1 963e c9bf 23bf 1cc1 b0bd 22d9 0fbf
000000a0: f6d6 8bbe e57d 7abe d9b3 823d 0d0d 553e
000000b0: 0e1f 38be 52b5 22bf a8c3 0cbf f9db abbe
000000c0: cc38 dbbd d0d2 a9be a299 3dbf 201d 09be
000000d0: 9143 15bf 09ec 1abf 65a9 6abc c7af b3bd
000000e0: 70a5 60bd a3e0 49bf 0507 30bf 4dc3 21bf
000000f0: f66a 8ebe 2d69 23bf b937 91bc bf6e e6be
00000100: 5763 873f ba03 d03d 308d d7be 8d58 f8be
00000110: db47 febe 1bef 80be 891c 8cbe 8025 22bd
00000120: 6e30 b33b 4dc3 fbbe 1efd bfbe 824a 0ebd
00000130: 341e 47bf 239f 90be a9bd b13e be07 3bbe
00000140: 05f9 8abe 74b0 17bf 937d 4fbf 4a02 15bf
00000150: 1f02 bbbe f387 41be ccb4 dabe 9368 bbbe
00000160: 0514 02bd f6ed 433e e2e2 ffbe 44c9 fcbe
00000170: 2022 13bd 0f91 aa3e 1310 2cbf 0c27 98be
-0.4207504 -0.6160973 -0.2654998 -0.33837304 -0.69559735 0.19642128 0.10842674 -0.104132906
-0.33433235 -0.6823097 -0.38194028 -0.4022334 0.15223761 -0.8228941 -0.94473475 -0.3915171
0.44384918 -0.08703861 -0.045842584 -0.5906411 -0.1615336 -0.38152066 -0.5336621 -0.36406562
-0.12374568 0.061270688 -0.71789455 -0.44893366 -0.24356869 -0.05959146 -0.4652158 -0.92372745
-0.023460433 -0.49411923 -0.45025146 -0.2687268 0.29432136 -0.63964516 -0.08630583 -0.56190693
-0.2731244 -0.24462087 0.063819595 0.2080576 -0.17980596 -0.6355792 -0.5498605 -0.33566263
-0.107041925 -0.3316865 -0.7406255 -0.13390017 -0.58306223 -0.6051641 -0.014322613 -0.08773761
-0.054845273 -0.78858393 -0.6876071 -0.6318863 -0.2781598 -0.6383236 -0.017726766 -0.45006368
1.0577191 0.10156961 -0.42099905 -0.4850506 -0.49664196 -0.25182423 -0.2736552 -0.039586544
0.0054684198 -0.4917244 -0.374978 -0.034739025 -0.7778046 -0.28246412 0.34715012 -0.18264672
-0.27143112 -0.5925362 -0.81050986 -0.5820662 -0.36525056 -0.18899517 -0.42716062 -0.3660322
-0.031757373 0.19133744 -0.49977785 -0.49372303 -0.035921216 0.33313796 -0.6721203 -0.2971729

bn1.running_mean f4 [96]
00000000: 3a38 73bd ba8d bc3d 567d 28be ea1d 13bd
00000010: 70be a3bd ff9e 86bd 203d 143e 19c4 14bd
00000020: f554 2dbe 0f43 0d3e faf2 c8bd 7d16 313e
00000030: d441 3abe 9143 acbd 2312 423b e242 d1bd
00000040: 265f 293e e165 093d 8aaa 6fbc bf87 8a3d
00000050: 6e2b adbd 8a34 f93d 333e 0f3d 13a4 6abd
00000060: e0a0 cbbc be4c 1d3e 5dbf 02be 665e 6bbc
00000070: d098 1c3e 9068 0a3e aedc a33d 7156 12be
00000080: 708b a93c 62d2 4d3d cee9 0c3e 7597 32bd
00000090: d9aa cd3c 65ed 1abe 56bb d4bd 5a79 b53d
000000a0: ebcf 1f3e 6fad 0a3e 9fe5 0fbe 6362 cabd
000000b0: a596 123e c26d ebbd fc1e 30bd ca46 a03d
000000c0: 02c4 1fbe d4f7 20bc ae8a 40bd b4ef c2bd
000000d0: bfb9 15be 615a 27be db7e da3b b6ad 213d
000000e0: e73e 773d 8968 d03d f865 f7bd 1c08 c3bc
000000f0: 231d 24be 61f8 5dbd a6cd 9cbd d7a7 5c3c
00000100: 11b4 d7bd b2f8 123d 36fb 193e 962e 80bc
00000110: b99a f63c 3a21 803d ef68 293d 4e73 0d3c
00000120: 06c7 133d c775 2e3d 5d62 b2bd 5b03 34bd
00000130: f854 44bd cc1b 6d3d d4aa 0f3c 09e9 743d
00000140: e121 ccbd 8566 80bd 9188 b0bb 3f23 fd3d
00000150: e80c 01be ddb2 18be b4c1 02be 7bec 03be
00000160: bc66 913d 7342 a3bd a6a8 863d 6e96 ea3d
00000170: 6770 1fbe 8b4a 0cbe e20f e7bd 502f 823c
-0.059379794 0.0920672 -0.16454062 -0.0359172 -0.079953074 -0.06573295 0.14476442 -0.036319826
-0.1692694 0.13795112 -0.09811969 0.17293735 -0.18189174 -0.08411325 0.002961286 -0.10217835
0.16540202 0.033544425 -0.014628062 0.06764173 -0.08455549 0.12168224 0.034971427 -0.05728538
-0.024856985 0.15361306 -0.12768312 -0.014365768 0.15292668 0.1351645 0.08001076 -0.14290787
0.020696372 0.050249465 0.13761064 -0.043601472 0.02510588 -0.15129621 -0.10387294 0.088610366
0.15606658 0.13542722 -0.14052437 -0.09882047 0.14315279 -0.11495544 -0.0429983 0.07826002
-0.15602115 -0.009824712 -0.047007255 -0.09518376 -0.14621638 -0.1634307 0.0066679544 0.039472304
0.060362723 0.101761885 -0.12079996 -0.023807578 -0.1602674 -0.05419195 -0.07656412 0.0134677505
-0.10532392 0.035881706 0.15037236 -0.015647214 0.030103074 0.062563375 0.041359838 0.008633448
0.036078475 0.04259279 -0.087101676 -0.043948513 -0.047932595 0.057887837 0.008768756 0.059792552
-0.099673994 -0.06269554 -0.0053873737 0.12360238 -0.1260258 -0.14911981 -0.12769204 -0.12883179
0.07099673 -0.079716586 0.06575136 0.114544734 -0.15570222 -0.13700311 -0.11282326 0.015891701

bn1.running_var f4 [96]
00000000: 9ef1 843f a3ed 633f 11bd 1a3f c9b3 163f
00000010: b785 2c3f 8a69 433e 2006 f93f 54d5 cc3e
00000020: 093b a03e 269c d13f b295 b53e 40ff 293f
00000030: af44 1d3e 07bd 173e 80d1 9a3f 8c5b b83e
00000040: d45c c63e 1f88 4c3f a20a b73f 0c34 d13f
00000050: 7de7 093f 5a6c 3c3f a717 0c40 727e c03e
00000060: 7f62 1f40 4fdc 413f 3fbb d73f 10d6 b43f
00000070: 98d8 6c3f 5d48 a53c 8bed 7a3f e23b b23f
00000080: 40c4 9e3c e6e4 5c3f cc60 3840 49f9 8140
00000090: 0224 343f f8fe 8f3f 6226 1340 ab7d c83f
000000a0: 6433 c43d 6e86 b13f 1c4a b13e adee 6140
000000b0: 1667 ce3f bc76 e03f 39d4 433f e937 0240
000000c0: adae a13c c6d2 a83e 5b91 a33f 8120 bb3d
000000d0: 48b1 f13f 8a9e cc3e 0975 fa3e 891d 3d3c
000000e0: ef8b f63e 1986 b93e b3e5 bd3f de82 3d40
000000f0: 0cdb 763f fc90 a93f 0770 ef3e 1ad5 d63e
00000100: c221 633d fcc7 083f ee33 023f c8a7 593f
00000110: 4b6a 823f bd71 cd3e 7924 7f3f b3a8 073e
00000120: a245 323f 1358 213f d312 1340 19cc 653f
00000130: aeb1 5c3f 7e7f 8a3f 6828 643e 4104 723f
00000140: 990b 3740 c4ba 863f bfd9 203f d87d ca3e
00000150: 2d99 1b3f f5b7 f13f 964b 833f 5f29 b43e
00000160: 3457 6c3e d248 723e 85ab 473f 216b eb3f
00000170: 6159 0b3f aa3c 043e 9de5 1a40 80e5 b63f
1.0386236 0.8903448 0.6044474 0.5886808 0.6739153 0.19083229 1.9454994 0.40006506
0.3129504 1.6375778 0.3546577 0.66405106 0.15358232 0.14818202 1.2095184 0.36007345
0.38742697 0.79895204 1.430012 1.6344008 0.5386885 0.7360283 2.1889436 0.3759647
2.4903867 0.7572679 1.6854018 1.4127827 0.92517996 0.020176107 0.9801871 1.3924525
0.019380689 0.8628677 2.880908 4.0616803 0.70367444 1.1249685 2.2992177 1.5663351
0.095801145 1.386915 0.34626853 3.5301926 1.6125209 1.7536235 0.764957 2.0346625
0.019736612 0.32973307 1.2778734 0.09137059 1.8882227 0.39964706 0.48917416 0.011542686
0.48153636 0.3623512 1.4835724 2.9611125 0.9642799 1.3247371 0.46765158 0.4195946
0.055452116 0.5343015 0.5086049 0.8502164 1.0188688 0.40125838 0.9966503 0.13247947
0.696375 0.63025016 2.298024 0.89764553 0.8620862 1.0820158 0.22281039 0.9453774
2.8600829 1.0525746 0.62832254 0.39549136 0.607806 1.8884264 1.0257442 0.35187814
0.2308014 0.23660591 0.77996093 1.8392068 0.54433256 0.12913767 2.4202645 1.4288788

fc2.weight f4 [96, 96]
00000000: de44 003f 3d7d 8dbe 77a0 21bf ceb6 7dbe
00000010: 6061 f53e fda4 953e f266 59bd b8a4 9a3d
00000020: d26a 5cbf f116 073f b3a6 623d b45f 583e
00000030: 5b92 9fbe 42db 9dbf 455e a1be ee24 373e
00000040: 437f 083e 780f 503f 683e e43e fec2 b5be
00000050: 0cef 293e 3003 f53d 945e 133f 5e46 2cbf
00000060: 8e70 d13e ff43 1bbf 5c36 b83e b8ef 7ebd
00000070: 1983 433d 2ca5 4cbd 4b39 013f f5a4 123d
00000080: be7d a1bc 61ae 753d 5549 2dbe 80d1 9fbf
00000090: 87cc 7d3d 0b08 2d3b c47c 3fbc 2c9d 143f
000000a0: 5a97 23be 1413 5fbe f7e8 8d3e 7e7e 0c3e
000000b0: bc6b e03c 7451 c6be f351 873e 880d dabe
000000c0: a3fd 4cbd ac55 b5be 6638 57bf ab19 85bf
000000d0: 24a2 27bd 2600 86bf 8e83 283e 6c7a a3bd
000000e0: 7361 83be 079e aebe 39dc b53e 6810 913f
000000f0: e837 ba3e 4476 113f 0cfe 593f c6de b33d
00000100: 8379 0bbf 60fe 25bf 39b8 553e 4e40 36bf
00000110: ee28 9abe 14d8 36bd cd1d f2be fe18 2dbe
00000120: 9097 673e a310 8f3d 0aa2 6fbf 90fb 84bc
00000130: ba62 e93d 8f05 ee3e 2432 1bbd a707 e1be
00000140: 47ff 93be f2db 733e 6e3f 5ebf 4317 80bf
00000150: 04d9 5b3f 4b12 943e 5c5e 7b3d 2c66 bb3e
00000160: 2208 943f 2501 9abd 2cf1 0cbf 710b 42bf
00000170: adc4 02bf 050d 433e b41a 1fbf ad5b 233e
00000180: 92c6 c33e 05b9 cfbe b4f2 8dbe 5756 d8be
00000190: 31ab 00bf 9b59 903d 4501 0fbf 0566 013f
000001a0: e2a0 4c3e e4cb 103f 873f 243e 8f06 ce3c
000001b0: 8703 7cbf 237d 823e 6ff4 afbe 911b 8dbd
000001c0: 5ae4 f03c cee5 9f3e 803b d23d f160 adbe
000001d0: d2fc 043f 21dc f03d 5f68 723f 403e 08bf
000001e0: 486e f9be 2334 8ebd df5e f93e a8a7 ebbd
000001f0: 112c 71be eeaa 113d a64d 3e3e 6d6f fc3e
00000200: c45c b13d aa90 4abf 6219 2b3d bfcd 10bf
00000210: ee51 fc3e fa74 fc3e 9346 47bf e208 2dbf
00000220: 5295 943d 4ca2 ba3d 8810 01be 92d2 84bc
00000230: 3688 193f 8b4a 353e cb1e 423d 0de1 8dbf
00000240: b797 55bd 1317 af3e 95d6 9f3e 38ce 26bf
00000250: f37a 3fbf 6303 5fbd 5111 063f 93da 8d39
00000260: dd9c 273f c2d2 b5be 2453 e23e 1ef5 d93e
00000270: 39fe e13e 8ea6 05bf c3ab 07bd c505 afbe
00000280: 44f6 ea3e d06c 4b3e 72cd 013f 2ed4 533e
00000290: 4d33 5abe 0313 3fbc 6a12 4ebf e684 893e
000002a0: 93c4 39be bec7 db3e e19f e3be 7442 64be
000002b0: f0e5 2a3e a708 98be fd88 b6be 779e 4d3c
000002c0: e2ac 5d3e 4e96 a53f bc30 6bbf ee01 e83e
000002d0: a19f 89bd 391c 1d3e 3b7a ebbe 9e41 d53e
000002e0: 6534 6ebd 057d 66bf 35e0 a03e 2b64 143e
000002f0: fef9 08bf f488 323f f1b3 fe3e a9be 4cbf
00000300: 4f7a dfbe 1c6e 80be 98f9 f9be 7445 963e
00000310: 079d c5be 4dae ea3d ae8e e1be 9d5e 2fbe
00000320: 71f0 54be 579e fe3e 1023 67be 546a 483e
00000330: 513b cf3e 30f8 7c3f f287 7e3f 57d6 86bc
00000340: 6b20 c23d 4058 b5be c69d 01be 9b22 8f3d
00000350: 722d d33d 1e82 6f3f 5e65 2e3e addd e6be
00000360: 2a86 ff3d a5c2 8e3e 943e fcbd 9306 963e
00000370: 9098 31bd 3460 fe3c 82f1 103f 36a8 79be
00000380: a888 63bd 4f20 9fbe 40a6 22be 7830 713d
00000390: 64af 09bf 9906 423f 099d 213d 1294 94be
000003a0: 3b1c 26bd 0332 c43e 9381 c4bd e63c 92bd
000003b0: a255 9b3e d407 b93e cc09 273e ba09 cabe
000003c0: c802 89bc 90ac 12be c1fc 54bd 4844 a43e
000003d0: 68ec 0c3f 43b6 7d3f 5713 90bd e426 ac3d
000003e0: 4980 5b3f 1bb9 a83e 56b0 c83d 1929 2cbe
000003f0: 96dc dc3e de5f 7e3e 5cc9 65bf b217 b53e
0.50105083 -0.27634612 -0.63135475 -0.24776766 0.47925854 0.2922744 -0.053076692 0.07550949
-0.86100495 0.5276938 0.055334758 0.21130258 -0.31166348 -1.2332537 -0.31517234 0.17885181
0.13329796 0.81273603 0.44578862 -0.3550033 0.16595095 0.119634986 0.5756619 -0.6729487
0.40906185 -0.6065063 0.35978973 -0.062240332 0.047732446 -0.049962208 0.5047805 0.035801847
-0.019713279 0.059980754 -0.16922505 -1.2485809 0.06196263 0.00264025 -0.011687461 0.58052325
-0.15975705 -0.21784621 0.277168 0.13720128 0.027395122 -0.3873402 0.2642971 -0.4258845
-0.050046574 -0.35416925 -0.8407043 -1.0398458 -0.040926114 -1.0468795 0.16456434 -0.079823345
-0.25660285 -0.3410494 0.3551958 1.1333132 0.36370778 0.56821084 0.8515327 0.08782725
-0.5448229 -0.6484127 0.20871057 -0.7119187 -0.30109352 -0.044639662 -0.4728836 -0.16904065
0.2261641 0.06985595 -0.93606627 -0.016233236 0.11395784 0.46488616 -0.037889615 -0.4395115
-0.289057 0.23814371 -0.86815536 -1.0007099 0.85878015 0.28920206 0.061369285 0.36601388
1.1564982 -0.075197496 -0.550555 -0.7579871 -0.51081353 0.19047935 -0.6215012 0.1595294
0.38237435 -0.40570846 -0.2772423 -0.42253372 -0.5026122 0.07048341 -0.5586131 0.50546294
0.19983247 0.5656111 0.16039859 0.025149612 -0.9844288 0.25486097 -0.34366176 -0.068900235
0.029405762 0.31230015 0.10265255 -0.33863023 0.51948273 0.11760736 0.9469051 -0.53219986
-0.4871695 -0.06943538 0.48705193 -0.11506587 -0.23551966 0.035563402 0.18584308 0.4930376
0.08660272 -0.7912699 0.041772254 -0.56563944 0.49281257 0.49307996 -0.7784206 -0.6759168
0.07255043 0.09112987 -0.12603962 -0.016213689 0.59973466 0.17704217 0.047392648 -1.1084305
-0.05214664 0.34197292 0.312184 -0.65158415 -0.7479698 -0.05444659 0.5237017 0.00027056466
0.6547373 -0.35512358 0.44204056 0.42569822 0.4413927 -0.5220727 -0.03312279 -0.3418409
0.4589101 0.19865727 0.5070411 0.20686409 -0.21308632 -0.011662248 -0.8049685 0.26859206
-0.18141393 0.4292583 -0.44457915 -0.22290975 0.16689277 -0.296941 -0.3565139 0.012549988
0.21647981 1.2936494 -0.9187124 0.45313972 -0.067199 0.15342797 -0.45991692 0.41651624
-0.058155436 -0.90034515 0.31421056 0.14491336 -0.5350646 0.69740224 0.4974666 -0.79978424
-0.43648002 -0.25084007 -0.48823237 0.29349864 -0.38596365 0.114590265 -0.44054168 -0.17125936
-0.20794846 0.4973018 -0.22571969 0.19571811 0.40474942 0.98816204 0.99426186 -0.016459627
0.094788395 -0.35418892 -0.12657842 0.06989022 0.103114024 0.9355792 0.17030856 -0.45091
0.12476762 0.27882877 -0.12316623 0.2930189 -0.043358386 0.031051733 0.5661851 -0.24380574
-0.055550247 -0.31079337 -0.15883732 0.058884114 -0.5378325 0.7579132 0.0394564 -0.2901922
-0.040554266 0.38319406 -0.09595027 -0.07140522 0.3033877 0.36138785 0.16312331 -0.39460546
-0.016724959 -0.1432364 -0.051998857 0.32083344 0.5504823 0.99106234 -0.07034939 0.08405855
0.8574262 0.32953724 0.097992584 -0.16812553 0.43137044 0.24841258 -0.89760375 0.3536964

fc2.bias f4 [96]
00000000: 4d96 42bd 1275 7b3d de3a b13d 4fbb 8c3d
00000010: bd28 fcbc a9ae 623d 1851 4c3c 7f63 3ebd
00000020: e272 aabb 72b8 9c3d fb7f 783d ca4d 953d
00000030: a32e 0b3d 03b1 813d 2ee9 26bd f5d8 5c3d
00000040: 4fe8 8ebd 3cfb 93bd 80c6 9bbd 2823 57bc
00000050: 9d8c 5a3d 5a95 8cbd 260e adbc 4f9d 05bc
00000060: a835 c1bd c077 c73d efc3 393d dede 84bd
00000070: 38e1 2ebd 1605 383d 3cf3 833d e9e9 8a3d
00000080: 00e7 5d3b 5465 0bbd 3d9e c23d d3df 853d
00000090: 59e0 dd3c 559d 0b3c 6de4 72bd e2dd aabd
000000a0: 09a6 4d3d 7d13 8b3d 76f0 06bb 3ac6 113d
000000b0: 9d6d 703d e19a 6cbd c651 45bc 23c0 dfbc
000000c0: 875d 7a3d 7c48 25bd c214 953d 66e0 a9bd
000000d0: 72e2 a6bd b84b 29bc e1c7 d63b 04a1 cebc
000000e0: 663a 2f3d abb9 a33c 725d 903d aa6f 9abd
000000f0: 8374 7dbd 5929 bd3d d964 273c 56a1 9a3d
00000100: 05ea a03c 44c4 f23c e75f cebd dacc 9e3d
00000110: 7b1d c2bd 99c4 a8bd 9a92 35bc 0953 653d
00000120: 8b60 003d 26dd b9bc 165f c03c f855 8f3d
00000130: fdda 993d 7194 cf3d 2c81 7bbd e2b5 a73d
00000140: 6968 d23c 9a93 973d 9fd7 4cbd c41f f5bc
00000150: cb89 b7bd 62dd 603d 1303 a63d 8a84 1cbd
00000160: 36df 673d 00ee ed3c e6d0 87bd c7bf 873d
00000170: fb3f b7bb 4b2f 86bc bc23 ba3d a43d b8bd
-0.04750662 0.061390944 0.08653806 0.06871664 -0.030781144 0.05534235 0.012470506 -0.046481606
-0.0052016834 0.07652368 0.060668927 0.07290228 0.033980023 0.063325904 -0.04074972 0.053917844
-0.06977903 -0.072256535 -0.0760622 -0.0131309405 0.053356756 -0.06864424 -0.02112491 -0.008155181
-0.09434062 0.097396374 0.045352872 -0.06487821 -0.042695254 0.044926725 0.06442878 0.06782896
0.003385961 -0.03403218 0.09502838 0.06536832 0.027084516 0.008521398 -0.059299875 -0.08343102
0.05020717 0.067908265 -0.0020590103 0.035589434 0.058698285 -0.05776489 -0.012043422 -0.027313298
0.06112435 -0.04035233 0.0727935 -0.08294754 -0.0814866 -0.010332994 0.006554589 -0.025223263
0.042780302 0.019985994 0.07049073 -0.075408295 -0.061878692 0.09236402 0.010216915 0.07550304
0.01964284 0.029634602 -0.10076886 0.07753916 -0.09478279 -0.08240623 -0.011082316 0.05598739
0.03134207 -0.02268846 0.02348284 0.06998819 0.07512472 0.10135735 -0.061402485 0.08188988
0.025684552 0.074012 -0.05001032 -0.029922374 -0.08961829 0.054898627 0.08106055 -0.038212337
0.056609355 0.029044151 -0.06631641 0.066283755 -0.005592344 -0.016379973 0.09088847 -0.08996132

bn2.weight f4 [96]
00000000: 8961 833f 8968 ad3f eefc 8a3f 5115 943f
00000010: 4bd5 8f3f f04e c03f 21ee a43f b4f0 c23f
00000020: 5969 ab3f ed8f be3f 5296 883f fc51 a13f
00000030: 6d4b 843f 23c4 7e3f 2983 d93f 888b 7f3f
00000040: 17f8 a73f 7915 983f 896a b53f d68c 923f
00000050: 3cb7 bd3f 506a be3f 2048 a13f 8aa4 863f
00000060: 3f38 bd3f c600 f23f 17f8 c23f 755c a63f
00000070: 04d3 ac3f 9258 813f 9b99 8f3f d94a a13f
00000080: 34e5 8f3f 6fda 853f 4c7d b33f a36b a03f
00000090: 8882 833f 753b a03f f604 ab3f 1971 a03f
000000a0: 564e a83f ec36 7d3f 51ed 883f ccc0 943f
000000b0: 344d 9c3f 1a5e a33f 8640 a33f 2032 c63f
000000c0: 9cf3 8c3f bbf2 7b3f 6dbb ab3f ed47 9b3f
000000d0: 4a41 c93f 8030 893f 29c3 993f 2d04 a63f
000000e0: 1b75 703f 2049 973f 95aa a03f e15c d53f
000000f0: 4d26 bc3f c41c 7c3f c873 933f df0a cc3f
00000100: 3366 7d3f 6739 923f 5767 af3f 3a3f 953f
00000110: 2c88 713f 8f74 5c3f e517 b73f 525a a73f
00000120: 4b53 d53f 5c94 873f e298 8f3f d7d2 a43f
00000130: ffee e43f af91 873f d198 913f 7756 a83f
00000140: f12b da3f 2980 993f ae23 bc3f 60c2 e43f
00000150: 8744 cf3f 6fbc aa3f 06d4 c53f d1f7 ac3f
00000160: 4cff 863f 128b 8f3f a94b 9e3f 7f6d ba3f
00000170: 164d 943f cd27 9c3f 3ea6 973f 24fd b43f
1.026414 1.3547527 1.0858438 1.1569005 1.1236967 1.502409 1.2885171 1.5229707
1.3391525 1.4887673 1.0670874 1.2603145 1.0335518 0.9951803 1.6993152 0.9982228
1.3122586 1.1881553 1.4173137 1.144923 1.4821544 1.4876194 1.2600136 1.0518963
1.478279 1.8906486 1.5231961 1.2996966 1.3501897 1.0105155 1.1218752 1.2600967
1.1241822 1.0457286 1.4022613 1.2532848 1.027421 1.2518145 1.3360889 1.2534515
1.3148906 0.9891193 1.0697423 1.1621337 1.221106 1.2763093 1.2754066 1.5484047
1.1011844 0.9841725 1.3416573 1.2131325 1.572305 1.0717926 1.2012683 1.2970024
0.9392869 1.1819191 1.2552058 1.6668969 1.4699188 0.9848139 1.1519709 1.5940818
0.9898407 1.1423768 1.3703412 1.165992 0.94348407 0.86115354 1.4304167 1.3074439
1.6666044 1.0592151 1.1218531 1.2876843 1.7885436 1.0591334 1.1374761 1.3151387
1.704466 1.1992236 1.4698389 1.7871819 1.6192788 1.3338755 1.545533 1.3513128
1.054666 1.1214316 1.236684 1.4564666 1.1586025 1.2199646 1.1847608 1.4139752

bn2.bias f4 [96]
00000000: f67a 4bbf 38fd a0bf f5c8 d2bf 354d 1ebf
00000010: 737b a5bf b52a d7bf 7197 d5bf 8de6 c6bf
00000020: 5926 a4bf d2b2 45bf 446f 22bf 9d3d a6bf
00000030: 0474 bdbf 21e2 48bf 46a3 57bf d98f a8bf
00000040: 082e 17bf cd01 55bf 85d2 2ebf 6a4d 57bf
00000050: 80a0 54bf 6e63 76bf ea37 8bbf 3092 a1bf
00000060: 9fc7 30bf a979 6cbf 0e20 72bf 9a4d 29bf
00000070: 8b6a c0bf c4b8 91bf 1651 58bf cd7a 42bf
00000080: 069d f3be cfef 34bf bc7f ccbe 674c 11bf
00000090: a7f2 8abe 88b0 1cbf 6c5a 5fbf b626 52bf
000000a0: 9fcb 6cbf 3a05 6abf dd35 6cbf ca9c 78bf
000000b0: 7a3a 11bf e85d c6bf 3897 c4bf 90eb 5dbf
000000c0: 766e 08bf 6ad3 8bbf 5481 58bf 3fd9 19bf
000000d0: 7589 91bf 9591 c0bf 6571 57bf 5911 51bf
000000e0: 5e5b 8bbf 2a1d 72bf 2606 79bf 869d b7bf
000000f0: ca37 55bf b44f 86bf 4956 02bf 734d 8ebf
00000100: 1d9f 1cbf 7a63 89bf 89fb 66bf 385c 27bf
00000110: e768 98bf 0777 5ebf fd64 89bf 3a6a 8dbf
00000120: 4af1 9bbf af7f d4bf 68db 80bf d389 ccbf
00000130: bc2c 91bf 7276 94bf 4bef aebf 3a25 d7bf
00000140: 2498 6dbf 0ee2 99bf a82c 96bf a0e5 23bf
00000150: 1194 77bf 03e9 81bf a0cb 9cbf 7bb4 b1bf
00000160: af64 23bf c6da a9bf 81d8 cebf 444d 77bf
00000170: c9c2 e7be 2066 c5bf fc10 fbbf 883c c9bf
-0.794845 -1.2577276 -1.6467577 -0.6183656 -1.2928299 -1.6809908 -1.6686841 -1.5539109
-1.2824203 -0.77225983 -0.6345103 -1.2987553 -1.480103 -0.78470045 -0.8423351 -1.3168899
-0.59054613 -0.8320587 -0.6828998 -0.841025 -0.83057404 -0.9624547 -1.0876439 -1.2622738
-0.690546 -0.9237314 -0.9458016 -0.66134036 -1.5032514 -1.1384511 -0.8449873 -0.7596863
-0.47580737 -0.7067842 -0.39941204 -0.56757206 -0.27138254 -0.61206865 -0.8724735 -0.8209032
-0.924982 -0.91414225 -0.9226969 -0.9711424 -0.56729853 -1.5497408 -1.5358648 -0.86687565
-0.5329355 -1.0923893 -0.8457234 -0.60097116 -1.1370074 -1.5044428 -0.841574 -0.81667095
-1.0887258 -0.9457575 -0.97275007 -1.4344947 -0.8328825 -1.0493073 -0.5091291 -1.1117386
-0.6118029 -1.0733483 -0.9022756 -0.6537509 -1.1907014 -0.8690037 -1.0733944 -1.1048043
-1.218301 -1.6601466 -1.0066957 -1.5979561 -1.1341777 -1.1598647 -1.3666776 -1.6808236
-0.92810273 -1.2022111 -1.1732378 -0.64022255 -0.96710306 -1.0149235 -1.2249641 -1.3883203
-0.63825506 -1.3269889 -1.6159822 -0.96602273 -0.45265797 -1.5421791 -1.9614558 -1.5721598

bn2.running_mean f4 [96]
00000000: 5369 64bf 7998 bfbd aeae 5f3e 03b9 ee3f
00000010: b3ea c3bf 4330 f0bd 2b74 d5bf 50b8 08c0
00000020: d98b 973e 5cd2 1ec0 deb6 f03f ace0 11c0
00000030: b9d2 bbbf c02a 2dc0 fa2e 15bf b035 9f3e
00000040: 8f73 dfbf 0793 b6bf e6d1 323f 00cd 203e
00000050: 2190 26c0 2568 d2bf 68c7 f43e 4335 cdbf
00000060: 387e e9bf 537f cb3f 7daa 563f 7853 84bf
00000070: 6214 983e 11fd 3ac0 ae56 cd3d d68b 87bf
00000080: 39a0 37bf e231 4bc0 9bed 9e3f c1e5 23c0
00000090: 00ea e1bf 4b57 52c0 18e7 2cc0 cb39 05c0
000000a0: d77c 06c0 9965 f73e 29ea 2cbf 5415 55bf
000000b0: 8175 27be a7a7 ff3f d825 81c0 bf00 e7bf
000000c0: b339 2240 0672 b43e 0752 13bf 14e3 abbf
000000d0: 0a5d c03f 4508 3c40 98d4 b73e 7cc3 ce3e
000000e0: b72a b5bf 9546 8cbf 7a4d 9b3f b311 e8bf
000000f0: e517 173e 7ded ad3f 01a4 8fbf 2abf b13e
00000100: c033 3a3f ed05 d9bf 15ac 043f 313d d43f
00000110: 19c3 8fbf 1aec 443f ea79 5fbd c4ab bdbf
00000120: b1ae 893f 50c1 a9bf efe7 22c0 9dd2 f93c
00000130: ba15 dabe 0a22 98bf abab af3f e0f0 c7bf
00000140: d704 0040 45be 293f f961 85bf 678f 3d40
00000150: 758e f6bd b506 c2bf 5150 cb3e 5836 a1be
00000160: c90d d23f b0a4 07bf 38a2 c63f 7173 4bbf
00000170: 453f ce3f 03bd 963e a82e bb3e b4f9 9b3f
-0.8922321 -0.09355254 0.21843979 1.8650211 -1.5306 -0.11727955 -1.6676077 -2.1362495
0.29598883 -2.4815893 1.8805807 -2.279338 -1.4673682 -2.7057343 -0.58274806 0.31095648
-1.7457141 -1.4263619 0.6985153 0.15703201 -2.602547 -1.6438032 0.47808385 -1.6031879
-1.8241644 1.5898231 0.83853894 -1.0337973 0.2970305 -2.921696 0.100262985 -1.058955
-0.71728855 -3.1749196 1.2416261 -2.560898 -1.7649536 -3.286578 -2.7016048 -2.0816524
-2.1013696 0.483197 -0.675448 -0.8323567 -0.16353418 1.9973038 -4.0358696 -1.8047103
2.5347717 0.35243243 -0.5754704 -1.3428674 1.5028393 2.9380047 0.35904384 0.40383518
-1.415366 -1.095904 1.2133019 -1.8130401 0.14755209 1.3588101 -1.1221925 0.3471616
0.72735214 -1.6954933 0.51825076 1.6581174 -1.1231414 0.7692276 -0.054559626 -1.4818044
1.0756437 -1.3262119 -2.545406 0.030495936 -0.425947 -1.1885388 1.3724264 -1.5620384
2.0002954 0.66305953 -1.0420524 2.9618776 -0.1203889 -1.5158297 0.39709714 -0.31486773
1.6410457 -0.5298567 1.5518255 -0.79473025 1.6113058 0.2944108 0.36559033 1.2185578

bn2.running_var f4 [96]
00000000: 32da f13f b26e 0140 526f 503f 3e0e cf3f
00000010: ca4d cc3f d4d6 f23f 26e6 cc3f bf3d 0e40
00000020: 271d 0c40 938e 5640 8dc7 1c40 4033 1140
00000030: 841e ac40 5559 3640 e2b0 7440 19c0 1240
00000040: 27a4 5840 c995 1f40 fd79 2640 fb57 0840
00000050: deed 6b40 0651 d03f 98e6 0640 1db8 0a40
00000060: 41b0 8c40 f03e f23f 9c32 0540 f828 c140
00000070: 9ba6 1b40 4ab4 1e40 b9ee f13f a542 2840
00000080: 1958 9340 9487 6240 e730 e33f 5c5f 4340
00000090: b70b f93f 922a a240 e673 be40 1191 1540
000000a0: 6e6a 3240 3c1a e13f 05c1 5240 2cb3 5a40
000000b0: ad4a 2040 1918 a13f d5a9 5b40 07a4 fa3f
000000c0: 535e e73f e378 1140 47e6 ca3f 74e4 1840
000000d0: b566 6e40 4fc6 2c40 12ea a040 7cb5 4e40
000000e0: 44c2 eb3f 0ce0 ba3f be2b c43f 4a04 c63f
000000f0: 91f1 0b40 4e06 0540 bf5d 3c40 edc0 0b40
00000100: e1d8 b73f ec75 ef3f b0e2 9f3f b239 3c40
00000110: ba04 0b40 4ecd 0340 28bf 8a40 5d4c 9040
00000120: e79d e43f cae5 e03f 20eb 9540 2c2c 2140
00000130: d5df ae3f 163a a140 85e2 4e40 c861 5a40
00000140: b870 0740 621d 1440 d620 5b40 8c53 3b40
00000150: 2fdf cc3f 89a7 ee3f 59c4 f33f a8c6 ea3f
00000160: 0846 8540 2494 e13f 7623 fe3f 86e4 3140
00000170: fd0b 0740 12dd 1840 d77f 0740 c109 0c40
1.8894713 2.0223813 0.8141986 1.6176221 1.5961239 1.897181 1.6007736 2.2225187
2.1892793 3.352452 2.4496796 2.268753 5.378725 2.8492024 3.823296 2.2929747
3.385019 2.4935172 2.6011956 2.13037 3.6863933 1.6274726 2.1078243 2.1674874
4.3965154 1.8925457 2.081214 6.036251 2.4320438 2.479754 1.8900977 2.6290677
4.604504 3.539525 1.7749299 3.0526953 1.94567 5.0676966 5.9516478 2.3369792
2.787746 1.7586131 3.293031 3.4171858 2.5045578 1.2585479 3.4322407 1.9581307
1.807566 2.2730033 1.5851525 2.3889437 3.7250187 2.6996038 5.028573 3.229827
1.841866 1.4599624 1.5325849 1.5470059 2.186619 2.0785098 2.9432218 2.1836503
1.4363061 1.8707862 1.2491055 2.9410214 2.1721635 2.0594058 4.3358345 4.5093217
1.7860688 1.7570126 4.684952 2.518321 1.3662058 5.0383406 3.2325757 3.412218
2.1162548 2.3142934 3.4238791 2.9269743 1.600561 1.8644878 1.9044296 1.8341875
4.1647987 1.7623334 1.9854572 2.779573 2.1101067 2.388493 2.1171777 2.1880953

fc3.weight f4 [4, 96]
00000000: 768e 75be 294d 10bd b1fc ddbf 7e2f 513f
00000010: 3b5d a13f 9f8b 9bbd 1ee7 193f 790b 2cc0
00000020: 41b0 873f c39f e6bf 7235 a5bf b3e4 73be
00000030: 7bf5 053e 389b 00bf 55ce 4f3f b3fc 843f
00000040: 8019 663e b79d 8c3f 8612 963f 0b60 7f3f
00000050: ee38 1abf 1815 cfbe 83e7 fcbe f86c 0abf
00000060: b466 dabf 1f40 73be 5670 a4bf 5334 70be
00000070: 7f62 5e3e 6f72 1a3f b8f1 8b3f d627 04bd
00000080: 5023 f0be 5114 21be 026c 373e eb16 3d3e
00000090: 3ba5 053f dae0 d13f 6651 aabf 0f7c c4bf
000000a0: 13e7 b9bf fd0b 773f 1603 90bf 422e a9be
000000b0: 2150 ccbe 576e 99bf 6c71 33bf ead2 d73f
000000c0: 0756 6e3f fc19 f93f 4c7a 9abf ae30 d73f
000000d0: 2da3 85bf 0dc8 8ebd 47c3 0d3f 1b7c d23f
000000e0: f50a b53f 62e6 74be 0ae8 0e3e 5e48 19c0
000000f0: f811 c5bf 5752 30bb 1be9 023f ab31 e9be
00000100: a6ce 463f 7878 d2be 1327 f93f a3b5 f8be
00000110: 3a24 42bf 7ce6 a4bf b2b5 52be f27d 543f
00000120: 7c58 df3f cf56 b8bf 5df2 533f fce6 5cba
00000130: dd11 7a3c 998a 2dbe 153a 21bf 9653 b03e
00000140: 283f 923d 2478 c3be a0fc 583f 2d43 9c3e
00000150: 470a 713f dbd8 58bf 8f80 243e 8183 b13e
00000160: b75b 6d3e c70c 08bf d8ac a23f 6f50 c13f
00000170: 61b6 4bbf 375a 06c0 fe1a 17c0 0758 873f
00000180: 5e95 71bf 6ea7 8dbe 2636 0fbf 09e5 523f
00000190: 588a 84bf 9dae 4cbf fcc2 fb3f 1f09 9e3e
000001a0: 770c 923f a6de 283f 3eec dbbf 32f6 a53e
000001b0: 09ee 9fbb 883c 233d 362e acbf 96d6 27bf
000001c0: e84c 023f 38af 3abf 489f ba3f 6e00 89bf
000001d0: 6cbe 99bf c954 e5bf ffcd 1540 ad45 af3f
000001e0: 1381 e4be 7de0 d23f c40f 823e 1060 be3f
000001f0: d661 46bf 322f 87bf e176 c1bf f464 053e
00000200: afdb b83f 9533 b4bd 3dae c1bf 1d59 0bc0
00000210: ac0d f0be 89b0 eebe 8136 56bd ad94 a2be
00000220: 60e4 6c3f 4e13 343f d5f6 88be ce75 00be
00000230: 4d38 97bf 509d 5cbf e363 c8bf 99f9 4f3e
00000240: aa03 263e 9afc dabd 410a 00bf 5a5d 1cbe
00000250: 3eb4 d63f cf88 433f 1c6e 0cc0 dbcb 0fbf
00000260: 38bd e9bd 0bce a93e b6a3 bdbf e6ee e63d
00000270: c77c 0e3f fd14 b4bf ca23 40bf 0865 15bf
00000280: 724b ee3e 86f9 b5be 6053 b73e 95a1 06c0
00000290: 6b9d c33f 1a44 04bf 35c8 98be 920d febd
000002a0: ede2 1ebf 9871 a73f 0fbc 8c3e 94ed 053f
000002b0: e732 a93f 8644 54bd 089a d33e f57d 13bf
000002c0: 7b18 473f ea21 debf f3fd b2bf 4950 afbf
000002d0: d498 0240 1081 353f 6fb9 86be 9d4f 593f
000002e0: 649d a23f f036 cd3e e11f babe 8982 0c3f
000002f0: 4e98 b43f 8ca5 933e c115 27bf 7817 353f
00000300: 4639 85be 2edb 2abf f0f3 ffbf 669c 283e
00000310: 54f2 58bf be8d 0dbe 57d8 c83b a788 02bf
00000320: 45cb 3cbf 3da8 133c 1a2e 53be a4bd 803f
00000330: 3a7d 353e 1895 8abe f9bf c6bd 69ed 4e3f
00000340: 01ab a63e b676 853e 505a 83bc a0e8 c2be
00000350: 2b46 873e e829 45be 8051 0fbd a9de 02bf
00000360: 0bcc 4d3d 38d3 f13d 6f7a b03e a966 b03e
00000370: 2bf3 ddbe 15ed 403d 39e3 8c3d 4756 0cbd
00000380: 6034 a2bc c653 723e 8b2f 66be 4ef2 0d3c
00000390: 0ba6 e73d 3315 003e 85f1 f6bc 73dd 36be
000003a0: 9029 b23d d50c 83be 5b88 c4bd aa9c 573e
000003b0: 32a7 9ebd f092 593e 1463 b5bf 2752 973d
000003c0: 1d33 97be 6a31 083f 8044 17be 9799 75be
000003d0: 060c 1e3d f092 a4be deb5 873e cc87 853e
000003e0: 800b 913f 84d2 87bf ff76 933e 3f7c b6bd
000003f0: 51ad 30be 6174 5e3f f3e0 4d3e 1a86 273d
-0.23980126 -0.035229836 -1.734274 0.8171309 1.2606577 -0.0759499 0.6011828 -2.6882002
1.0600663 -1.8017505 -1.2906935 -0.2381771 0.13081925 -0.50236845 0.8117421 1.0389618
0.22470665 1.0985631 1.1724403 0.99755925 -0.6024312 -0.4044578 -0.4939538 -0.54072523
-1.7062593 -0.23754929 -1.2846782 -0.2345746 0.21717261 0.6033086 1.0933142 -0.032264553
-0.4690194 -0.15730406 0.17912295 0.18465774 0.52205247 1.6396744 -1.3306091 -1.535036
-1.4523643 0.9650267 -1.1250942 -0.33043104 -0.39904884 -1.1986798 -0.70094943 1.6861241
0.9310002 1.9461055 -1.2068572 1.6811731 -1.0440422 -0.069717504 0.55376095 1.6444124
1.4143969 -0.23916009 0.13955703 -2.395042 -1.5396109 -0.0026904547 0.5113694 -0.45545706
0.7765907 -0.41107535 1.946505 -0.48576078 -0.7583653 -1.2882838 -0.20577124 0.8300468
1.7448878 -1.4401492 0.8279169 -0.00084267533 0.015263048 -0.16947402 -0.6297925 0.3443877
0.07140952 -0.38177598 0.84760475 0.3052 0.94156307 -0.84705895 0.16064666 0.34670642
0.23179518 -0.53144497 1.2708998 1.5102671 -0.79575163 -2.0992563 -2.3610225 1.0573739
-0.9436854 -0.276668 -0.55942 0.8238073 -1.0354719 -0.7995394 1.966888 0.30866334
1.1410054 0.65964735 -1.718147 0.32414395 -0.004880671 0.03985265 -1.3451602 -0.6556181
0.508986 -0.7292361 1.4579859 -1.0703256 -1.2011237 -1.7916499 2.340698 1.3693138
-0.44629726 1.6474758 0.25402653 1.4873066 -0.77493036 -1.0561278 -1.5114404 0.13026792
1.4442042 -0.08798901 -1.5131298 -2.177314 -0.4688543 -0.4661906 -0.052298073 -0.31754056
0.9253597 0.70341957 -0.26750818 -0.12544939 -1.1814057 -0.8617754 -1.5655483 0.20310058
0.16212335 -0.10692711 -0.50015646 -0.15269986 1.6773756 0.7638063 -2.1942205 -0.56170434
-0.11413044 0.3316501 -1.4815586 0.11276035 0.55659145 -1.4068905 -0.7505461 -0.58357286
0.46541935 -0.35541934 0.35805798 -2.1036122 1.5282415 -0.51666415 -0.29840246 -0.12404932
-0.6206501 1.3081541 0.27487227 0.5231564 1.3218659 -0.05182316 0.41328454 -0.5761407
0.7777173 -1.73541 -1.3983749 -1.3696376 2.040578 0.7090006 -0.2631335 0.84887105
1.2704282 0.40080976 -0.36352447 0.5488668 1.410898 0.2883724 -0.6526757 0.70738935
-0.2602026 -0.6674069 -1.9996319 0.16465911 -0.84744763 -0.13823602 0.0061293053 -0.50989765
-0.73747665 0.009012279 -0.20623055 1.0057874 0.17723551 -0.27066875 -0.09704585 0.8083101
0.3255234 0.26067132 -0.016034275 -0.38068104 0.2642072 -0.19254267 -0.034989834 -0.51121
0.05024342 0.11807865 0.3446841 0.34453323 -0.43349585 0.0471011 0.06879277 -0.034261968
-0.019800365 0.2366477 -0.22479074 0.008663727 0.11310967 0.12508087 -0.030144462 -0.17857914
0.08699334 -0.25595728 -0.0959632 0.21055856 -0.07746734 0.21247458 -1.4170861 0.07388716
-0.29531184 0.532004 -0.14772224 -0.23984371 0.038585685 -0.32143354 0.2650594 0.26080167
1.1331635 -1.0611119 0.28801724 -0.08910417 -0.17253615 0.8689633 0.20105343 0.040899374

fc3.bias f4 [4]
00000000: 8c6c 2dbe b108 a1be f28a 97bc d331 db3d
-0.16935939 -0.31451944 -0.018498871 0.107028626
