96_96_critic.pth (torch_old, 54188 bytes, 9 tensors)

bn0.weight f4 [33]
000000 49 6b 09 3f 3d 74 54 3e 32 15 e6 3e 5a 15 f0 3d
       0.5367933 0.20747466 0.44938046 0.117228225
000010 98 6d a6 bb 0b ed 0a 3e 66 16 9b 3d 9e 51 3f 3d
       -0.0050789826 0.13566987 0.075726315 0.046708696
000020 b0 2f 60 3d 63 40 3b 3d c9 cb 9c 3d 94 48 99 3d
       0.05473298 0.0457157 0.076560564 0.07484546
000030 4c 91 9b 3d 4e 9e 89 3f 0a c7 b5 3e c7 63 60 3f
       0.075960726 1.0751436 0.35503417 0.8765225
000040 f2 90 99 3d ae 0f a5 3d 08 2f 5a 3d 3c d5 75 3d
       0.07498349 0.08059631 0.05326751 0.06001781
000050 96 22 5c 3d 68 c4 03 3d 1e dc 33 3d a6 84 96 3e
       0.05374392 0.03216973 0.043911092 0.29398078
000060 f1 f7 2c 3e 03 65 86 3e 29 d9 88 3f 29 2d 58 3f
       0.16891457 0.2624894 1.0691272 0.8444391
000070 64 0d 85 3f b4 0e 97 3e 7c 5f f4 3e 72 18 f5 3e
       1.0394711 0.29503405 0.477291 0.47870213
000080 43 55 8a 3f
       1.080727

bn0.bias f4 [33]
000000 d1 be 2d 3e 7e de d9 bd c3 00 5a bd 39 22 8f 3d
       0.16967322 -0.1063814 -0.053223383 0.06988949
000010 fb b4 3b 3b 03 d2 df 3b 3f 03 4b 3b 9a 66 50 3b
       0.0028641808 0.0068304553 0.0030977277 0.0031799437
000020 ca 48 a2 3b c8 62 c3 3a 31 78 28 3d ee 88 c8 bc
       0.004952525 0.0014906758 0.04113025 -0.024479356
000030 cd 3e 89 3a 7e 0b 65 bc 87 da bd 3d 03 b0 68 bb
       0.0010470987 -0.013979791 0.092701964 -0.0035505302
000040 5f f7 ca 3c 9d c3 4d 3b 6c 66 c0 3c 30 13 01 3c
       0.024776159 0.0031397112 0.023486339 0.00787811
000050 24 d5 fd bc aa 77 87 bb 77 1f 0b bd 9d 49 c8 3c
       -0.030985422 -0.004134138 -0.033965554 0.024449164
000060 36 38 46 bc 55 ec e6 3c fd 29 fa 3d 57 4a 33 bb
       -0.012098363 0.028188864 0.1221504 -0.0027357542
000070 82 10 21 bd f6 ba b6 3a e3 1f ba 39 4c f8 10 bb
       -0.039322384 0.0013941217 0.00035500442 -0.0022120653
000080 a2 ef 79 3d
       0.061019547

bn0.running_mean f4 [33]
000000 dc e4 48 be ec d8 30 c0 05 1b b0 bd a3 7b 5a 3f
       -0.19618553 -2.7632399 -0.085989036 0.85344905
000010 1f 51 d7 bc b3 d4 3e bb e3 a3 c1 bb e0 1e 81 ba
       -0.026283799 -0.0029118478 -0.0059094294 -0.000985112
000020 6f da 39 bb 34 b7 a8 3b 8a d6 10 3c 5b f7 a0 3c
       -0.0028358956 0.0051487926 0.008840213 0.019649198
000030 d4 02 44 bc 7a 16 bd be b0 50 2f c0 e5 2d ee bc
       -0.011963565 -0.3693121 -2.7392998 -0.029074619
000040 14 d3 47 3b f8 db 5b 3c 5e 81 28 3b a1 46 38 3e
       0.0030490803 0.013419144 0.0025711874 0.17995693
000050 71 5f 51 bd b8 5f c4 3c ff 46 7d ba 09 66 7a 3c
       -0.05111641 0.023971424 -0.00096617633 0.015283116
000060 40 5f 0f 3e 9c 1d b2 bc 10 5f 90 3b fc ff 7f bf
       0.14001179 -0.021742634 0.0044058636 -0.99999976
000070 87 e8 cc 3d 00 00 00 00 fc ff 7f 3f 00 00 00 00
       0.100052886 0.0 0.99999976 0.0
000080 f8 05 15 bd
       -0.036382645

bn0.running_var f4 [33]
000000 57 79 78 40 5d 4f c6 3e a0 41 83 40 1e 6b df 3d
       3.882406 0.38732424 4.101761 0.10909103
000010 92 8a 82 3d db 12 10 3c ca 3d b7 3d 9a e2 8b 3e
       0.063740864 0.008793558 0.08947332 0.2732132
000020 33 68 88 3d 23 0b 19 3e 9f b7 31 40 c3 47 8a 3f
       0.066604994 0.14945655 2.7768323 1.080315
000030 6c 5e 29 40 43 51 85 41 99 95 a2 3f e1 e7 aa 41
       2.646388 16.664679 1.2701904 21.363222
000040 de e5 ab 3d af d9 6a 3e b9 7e 87 3d 05 68 16 3f
       0.08393453 0.22934602 0.06615967 0.5875247
000050 0f 95 be 3f 56 f9 eb 3e 7f a7 26 3f 30 44 e1 40
       1.4889239 0.46088666 0.6509933 7.0395737
000060 a2 01 82 40 81 a6 10 41 81 80 fd 41 04 00 00 00
       4.0626993 9.04065 31.687746 6e-45
000070 10 45 01 42 04 00 00 00 04 00 00 00 04 00 00 00
       32.317444 6e-45 6e-45 6e-45
000080 ee a4 b7 3e
       0.3586802

fcs1.weight f4 [96, 33]
000000 95 c4 af be 1d c5 c7 be 33 10 3b bc 56 a0 8a 3e
       -0.34329668 -0.39017573 -0.011417436 0.27075452
000010 81 99 a3 3c 36 fe e4 be 05 c2 6c be 7e 69 af 3e
       0.019970657 -0.44725198 -0.23120888 0.34260172
000020 e6 b8 a8 3e d8 d3 df bd c2 49 b8 3d b1 06 1d bf
       0.32953566 -0.10929078 0.08998443 -0.61338335
000030 53 26 0d be eb 09 8c 3e 3e 63 1c be bf 15 91 3e
       -0.13784151 0.27351317 -0.15272233 0.28336903
000040 62 c1 94 be 99 1c f0 bd af 5c d6 bd c9 f6 b5 3e
       -0.2905379 -0.117242046 -0.10466897 0.35539845
000050 b0 e2 35 be 0e d1 aa bd cd 0e 18 bf ed 56 19 3e
       -0.17762256 -0.08340655 -0.59397584 0.14974566
000060 00 dc bb bb 9a 7e e9 be 9c c1 98 bd 5a e5 12 3e
       -0.005733013 -0.45604402 -0.07458803 0.14345303
000070 1c d6 6a be d4 f9 9e bd 78 18 a9 3c e7 62 a4 bd
       -0.22933239 -0.07762495 0.02064155 -0.080266766
000080 89 9b 1f bc bc 83 bc bc 36 d3 95 bc 39 a4 56 3e
       -0.009741672 -0.023012035 -0.01828919 0.20961083
000090 13 94 39 3e 0c a9 f2 3d 54 a1 2b be 48 05 ad 3e
       0.18122892 0.118486494 -0.1676076 0.33793092
0000a0 ce 82 af bb 54 33 6d 3e b9 7a 84 3e 3b be e7 3d
       -0.0053561693 0.23164111 0.2587488 0.113155805
0000b0 a3 3c 6a 3c fc 77 36 be 57 2c cf 3e 4f 8f 3e 3e
       0.0142966835 -0.17819208 0.40463516 0.18609355
0000c0 ab a4 cb be 4d ec 90 3c f9 fc 00 3f 16 d9 48 3e
       -0.3977407 0.017690802 0.50386006 0.19614062
0000d0 a1 6d 4c be ef 5b 86 3d d8 80 8e 3d f1 ac 0e be
       -0.19963695 0.06560504 0.06958169 -0.1393316
0000e0 73 d2 5b 3e 4b 33 48 3d 0b af 9e be dd 10 0c bf
       0.21466999 0.04887704 -0.30992922 -0.5471323
0000f0 d5 7d 22 3b bc e9 cb 3d 0b aa b7 bb 40 de 35 bd
       0.002479424 0.09956691 -0.0056049875 -0.044401407
000100 50 ba 9c bc 83 ed e5 3d 0a 17 fe 3e 94 f1 5c 3f
       -0.01913181 0.112269424 0.49626952 0.8630612
000110 38 af c7 3b bc 07 08 bf ad de 7f bd f4 88 5b be
       0.0060938857 -0.531368 -0.06246822 -0.21438962
000120 25 ee eb be ea a0 d2 bd 99 cb 30 be 61 4a e8 3e
       -0.46080127 -0.10284598 -0.17265166 0.45369247
000130 d4 68 16 3f 31 f8 06 3f 85 7d 1f 3b 67 c2 4b be
       0.58753705 0.5272246 0.002433629 -0.19898377
000140 fe 2d 65 be c6 e4 73 be f8 b9 35 be 48 5c 86 3e
       -0.22380826 -0.23817739 -0.17746723 0.2624228
000150 70 eb b9 3e b3 4f 85 3d 91 59 56 3d 62 ad af 3d
       0.36312437 0.06509342 0.05233151 0.08577992
000160 6b 3a 6e be 04 61 70 3e 31 e7 82 3e 35 8f d2 be
       -0.23264472 0.23474509 0.2556701 -0.41124883
000170 59 68 a9 be d5 c4 36 3d c7 15 0d be c0 f6 80 bc
       -0.33087423 0.044621307 -0.13777839 -0.01574266
000180 e1 fc 52 bc 21 61 1d 3d 71 72 bc 3d 11 54 07 bf
       -0.012877674 0.038422707 0.092015155 -0.5286265
000190 05 5a e3 3e 4e ed ce be 31 58 cd 3e db 02 0d bd
       0.44404617 -0.40415424 0.40106347 -0.03442655
0001a0 19 30 5d 3d 56 5f fb be 9a 3e 8e 3e df 64 eb 3e
       0.054000948 -0.49096173 0.27782136 0.45975396
0001b0 4c fd 2d 3d 02 33 1c 3e 83 ba 01 3e 9e 57 81 3d
       0.04247789 0.15253833 0.12668805 0.0631554
0001c0 ad de 00 3f 9a 79 2c be 1b ae f8 3e c0 fd 81 be
       0.50339776 -0.16843262 0.48570332 -0.25388908
0001d0 92 e6 9c be 1b 85 f7 bd 93 8e b1 bb ea 78 0d 3e
       -0.3064466 -0.12085935 -0.0054186075 0.13815656
0001e0 6b 98 23 3e 2b cd 20 bd 03 7c 29 3f 01 2c 8d be
       0.15976112 -0.039258163 0.6620485 -0.27572635
0001f0 95 a8 5e bd 38 49 aa be 61 34 1a bd b0 8a 18 3e
       -0.05435999 -0.33258986 -0.03764761 0.14896655
000200 c2 f9 37 bd 39 57 5c 3d 2f 13 36 3c 1f ef 82 be
       -0.044915922 0.05379412 0.011112972 -0.2557306
000210 0d b8 e1 bc b9 29 0a 3d 29 56 1e 3f 64 97 12 be
       -0.027553583 0.033731196 0.6185022 -0.14315563
000220 32 ed 0a ba ad 73 43 be 23 99 82 3e e7 fe 0f 3d
       -0.0005299627 -0.19087096 0.2550746 0.035155203
000230 7a 1b a8 3d e9 ca 6b 3c f3 8b 4d 3e 7a e3 1e bd
       0.08208366 0.014391639 0.20072918 -0.038791157
000240 35 6a 44 be ff d3 8a bc 4f 28 fb 3c cd b0 73 bf
       -0.1918114 -0.01694679 0.03065887 -0.9519165
000250 0d 53 14 3e 5d 9c ed be 7c 5e c4 bd f9 ec d8 3b
       0.14484806 -0.46408358 -0.09588334 0.006620046
000260 66 8a 18 3e f8 4f 13 bd 5f 29 f8 bd 10 15 2a bd
       0.14896545 -0.035964936 -0.12117266 -0.041523993
000270 13 dd ad 3d e0 5b f4 be 1f a6 65 be 96 79 4e bd
       0.08489432 -0.47726345 -0.22426651 -0.050408922
000280 ac 29 16 3f 3e d0 6b 3d 94 64 52 3d 15 63 0d bc
       0.58657336 0.057571642 0.05136545 -0.00862958
000290 f4 14 4b 3e e2 63 a4 be 20 de 8d be aa 82 91 be
       0.19832212 -0.32107455 -0.2770853 -0.2842
0002a0 41 0a 66 be 80 9a 31 3d 0a 02 c9 bd aa 14 f1 bd
       -0.22464849 0.043360233 -0.09814842 -0.117715195
0002b0 ae 19 25 be 7b 64 1a 3d 31 61 98 3d 37 3c ad bd
       -0.16123077 0.037693482 0.07440413 -0.08458751
0002c0 62 62 10 bf 68 ca 2d 3d 11 68 72 3e 03 c9 8a 3c
       -0.5640012 0.042429358 0.2367251 0.016941553
0002d0 d9 75 d7 3e b2 4f 30 3e d5 c6 80 3c 3a bf 4c be
       0.42082098 0.17217901 0.01571981 -0.19994822
0002e0 09 dc 00 3e 0e 8b 27 be 3e 23 a6 bd 98 1d e8 bc
       0.12583937 -0.16361639 -0.08112191 -0.028334424
0002f0 b1 cf 1c 3e b2 08 aa bd cd 25 49 3f 51 0a 98 be
       0.15313603 -0.0830244 0.78573304 -0.2969537
000300 e9 78 6a 3d 6d 85 92 bd 28 b0 37 bc 0b 07 2f bd
       0.057244215 -0.07154355 -0.0112114325 -0.042731326
000310 59 c7 ef 3c f1 a3 ec be 4f 70 66 be c5 43 4b be
       0.029269861 -0.46218827 -0.2250378 -0.19850071
000320 30 6f 1a 3f 89 96 31 3e 5b 33 0c bd 1d 20 09 3e
       0.6032591 0.17342581 -0.034228664 0.13391156
000330 3d 28 d1 bd 15 c4 ce bd a9 5e d8 3d 66 0d 5e bd
       -0.10212753 -0.100959934 0.1056493 -0.054211996
000340 9a 54 f5 bc dc 17 6a be 6d 85 9d 3e a8 1f 62 3e
       -0.029947568 -0.22860664 0.30765858 0.22082388
000350 d7 01 5a 3e 05 55 a1 be c1 5f cc bc 23 9e 90 3d
       0.21289764 -0.31510177 -0.024948003 0.07061412
000360 3f 83 96 3e a9 a7 dc 3e 4f ac 07 3e 2d 2e 7b 3e
       0.29397008 0.43096665 0.13249324 0.24529333
000370 eb cc d9 3d 51 52 ed 3e 2d 56 bd 3e ff e8 71 be
       0.10634788 0.46351865 0.3697981 -0.23624037
000380 de c1 52 bd aa 6c 51 3d 30 f4 1f 3e 83 1c 02 3c
       -0.051454417 0.05112902 0.15620494 0.007941368
000390 7f e5 4f bd f2 c8 7b bd 6c 06 fa bd 12 4d c8 be
       -0.050755974 -0.061470933 -0.12208256 -0.391213
0003a0 0c c1 db 3e de 6f c8 3e cc 47 f8 bd dc 29 94 bc
       0.4292072 0.39147848 -0.12123069 -0.018086366
0003b0 2b 7c 9d 3e 3a 13 d4 3b 55 59 70 bd 6a 92 a5 3e
       0.30758795 0.0064720185 -0.058678944 0.32338268
0003c0 3c a8 0c bf 78 d3 83 bf 68 7c aa 3d 25 ec b0 3e
       -0.54944205 -1.029891 0.0832451 0.34555164
0003d0 27 6f db 3e 13 3d 79 be 35 7b d2 be 4d 2a 0f bf
       0.4285824 -0.24339704 -0.41109625 -0.5592392
0003e0 00 4e a0 3e e9 86 0f be 86 d9 1e be b4 19 ae be
       0.3130951 -0.14016308 -0.15512666 -0.34003985
0003f0 fd af 3d 3e 7b fe 2e 3f d7 e0 0f 3e 06 65 11 3e
       0.18524165 0.68357056 0.14050613 0.14198694

fcs1.bias f4 [96]
000000 44 28 92 be 3d 20 c7 be 16 03 f3 be 31 a5 00 bf
       -0.28546345 -0.38891783 -0.47463292 -0.5025206
000010 8c ae 98 be 1d 29 ba be d9 03 be 3c 42 aa b2 bc
       -0.2982067 -0.36359492 0.023195194 -0.0218097
000020 60 7d d4 be 94 5b da be 33 63 a7 be 0d af 5e bd
       -0.41501904 -0.42647994 -0.3269287 -0.05436616
000030 ad 4f f2 be 7e 4a b5 bd 52 57 07 bf 20 45 0f be
       -0.47326413 -0.08852099 -0.52867615 -0.13991213
000040 f4 fc 2d 3e 05 b2 c0 be ec 26 97 be 96 f2 63 3e
       0.16991025 -0.37635818 -0.29521883 0.22260508
000050 34 58 2a be 63 84 06 be eb 1d 5c 3c 7a 47 2c be
       -0.1663521 -0.13136439 0.013434867 -0.16824141
000060 21 f4 cf be 55 00 c5 3c 69 c7 70 be 5c ed c6 be
       -0.40615943 0.02404801 -0.23513569 -0.38852966
000070 d1 40 91 be d2 0b 93 be 05 20 84 be 25 86 d0 be
       -0.28369763 -0.28719956 -0.2580568 -0.40727344
000080 85 75 10 bf f4 64 e7 bd 08 5d d8 be 88 89 71 be
       -0.5642932 -0.11298552 -0.42258477 -0.2358762
000090 83 1b a9 be 2a 73 13 bf 1d 57 b3 be 0c 2a 9f be
       -0.33028802 -0.575976 -0.350274 -0.31086767
0000a0 2a 69 2e 3e 5c ec 10 3e 45 1c 84 be ca 7a 6b be
       0.17032304 0.14152664 -0.25802818 -0.22996059
0000b0 01 46 b6 bd f8 c1 5e be 34 f0 8f be 07 a0 9d be
       -0.08900071 -0.2175368 -0.28112948 -0.30786154
0000c0 95 6f ac be 3b 8e 7e be b9 fc b5 be f2 4c 88 be
       -0.3367888 -0.24858944 -0.35544375 -0.26621205
0000d0 32 69 33 bf b5 ac a9 be b8 1f 84 be 33 e7 0c bf
       -0.7008239 -0.33139578 -0.2580545 -0.5504028
0000e0 5f 61 a8 bd eb 5f 93 be 10 9c 00 bf 3e 03 4c be
       -0.08221697 -0.28784117 -0.5023813 -0.19923112
0000f0 8d e9 f0 bc bd 19 cb bd 82 04 97 be ef fd 98 3e
       -0.02940824 -0.099170186 -0.29495627 0.29881236
000100 fa 8f 3d bd fe 83 ce be 6d 62 4c be 0f 42 aa be
       -0.046279885 -0.40335077 -0.19959421 -0.33253524
000110 44 72 ef be 6a 57 a2 be c9 ed e8 be e6 98 eb be
       -0.46766865 -0.31707317 -0.45493916 -0.4601509
000120 60 45 f8 be b9 26 84 be 69 38 ff be c5 4d 95 be
       -0.4849043 -0.25810793 -0.49847725 -0.29160896
000130 ff fa 49 bf 81 77 29 be 74 76 eb be 29 23 01 bf
       -0.78898615 -0.16549493 -0.4598881 -0.50444275
000140 18 42 87 be 29 77 e4 be 7a a6 f0 be 9e 5c 06 bc
       -0.26417613 -0.44622162 -0.47002012 -0.008200793
000150 fd 6d e6 be a1 80 a0 be 5d c4 a7 be 82 74 d8 be
       -0.4500579 -0.31348136 -0.32767 -0.42276388
000160 d4 4f 5e 3e 5c e0 8e be 28 1e 9d 3e 57 dc 14 bf
       0.2171014 -0.27905548 0.3068707 -0.5814871
000170 04 44 0a bf 76 75 01 bf 4e 5b 54 be e2 73 3c 3d
       -0.54010034 -0.50569856 -0.20737955 0.046008952

fc2.weight f4 [96, 100]
000000 1b f4 eb 3c f5 21 aa bd e6 e8 a6 3e 74 03 ca 3e
       0.028802922 -0.08307258 0.32599562 0.3945576
000010 f5 65 f6 be 56 a4 31 3e 15 2c ca 3d dc 8a d0 bd
       -0.48124662 0.17347845 0.09871689 -0.10182735
000020 c4 21 99 be 66 0d eb be 41 3a 18 3e d0 a7 01 bc
       -0.29908574 -0.4590866 0.14865972 -0.007913545
000030 9d 4d 13 3f 54 59 0e bf 28 82 fb be 12 51 16 3d
       0.57540303 -0.55605054 -0.4912274 0.03669841
000040 ca 16 27 bd 2e fd c1 3e 4f fa 29 be c2 ad 12 3d
       -0.040793218 0.37888473 -0.16599391 0.03581024
000050 95 cd d1 3d 2e 95 0a bf 26 16 22 bb 97 90 1c be
       0.1024429 -0.5413388 -0.002473244 -0.15289532
000060 5c a4 88 3c 76 b0 7f 3d b7 6c b0 3e 95 e9 35 be
       0.016679935 0.062424146 0.34457943 -0.17764886
000070 05 f8 b1 3e b7 a7 f8 3e f9 45 89 bd 48 a1 19 be
       0.34759536 0.48565456 -0.06702799 -0.1500293
000080 58 5f 4a be 3d 29 c9 3d ea 96 b9 bf 5f 7c 49 bf
       -0.19762933 0.09822319 -1.449918 -0.787054
000090 c8 ad 5e be 4f d8 e0 3d c9 46 1b bf 14 15 81 be
       -0.2174598 0.109787576 -0.60654885 -0.25211394
0000a0 b8 13 a8 be bd 7d 49 3e 2f 8c 87 be 18 38 b1 3e
       -0.32827544 0.19676872 -0.2647414 0.3461311
0000b0 5e 21 cd bc 8e 5c db be 4d 01 39 be 0c d6 51 bd
       -0.025040325 -0.4284405 -0.18066902 -0.05122952
0000c0 b6 e3 81 3e 81 95 99 3d 50 0f 71 be 8d ba 7a 3d
       0.25369042 0.07499219 -0.23540998 0.061213065
0000d0 63 6f 8c 3e 65 ca 23 3f 4e bd 04 be e3 15 55 3e
       0.2742873 0.63980705 -0.12962839 0.2080913
0000e0 59 7a 7c bd d3 d9 45 be 13 e2 f0 3e 3c 8d 90 be
       -0.061640117 -0.19321375 0.4704748 -0.28232753
0000f0 e2 7d 82 be 85 5f 8b be d2 87 dd 3e d6 82 94 be
       -0.25486666 -0.27221313 0.43267685 -0.2900607
000100 a6 23 03 3e 4c 2d 1c bf 7b 01 4e bf 03 72 07 bd
       0.12806568 -0.6100662 -0.8047101 -0.033067714
000110 4c e9 ef 3e 21 63 1a 3e 73 98 9e be 65 6c 46 3e
       0.4685768 0.15076877 -0.30975685 0.19377287
000120 23 91 c9 be de e6 a2 be 33 57 e2 be 2e 11 8a 3e
       -0.39368543 -0.31816763 -0.44207153 0.26966232
000130 65 99 31 3f 62 72 b5 be 72 ff 4c be 89 b3 96 be
       0.69374686 -0.3543883 -0.2001932 -0.2943385
000140 2e 5c d2 3d 5a 6e d8 be 90 66 a6 3e 15 96 ce be
       0.10271488 -0.42271692 0.32500124 -0.40348879
000150 3e 03 5b bf e5 fb 16 bf 22 6a cb be 69 a1 18 bf
       -0.8555182 -0.5897811 -0.3972941 -0.5962129
000160 f0 4e 64 be 37 aa 50 bf 77 ca ef 3d f7 25 2d 3e
       -0.22295737 -0.8150973 0.11708539 0.16909014
000170 d8 ee 5e be f7 60 50 be 3c ee 4c 3e 00 2e c3 bd
       -0.21770799 -0.20349489 0.20012754 -0.09530258
000180 1f cf 86 bc 1e a8 39 3b 0c 9e 71 bc 59 84 e3 bc
       -0.016456185 0.0028328965 -0.014747154 -0.02777307
000190 57 2e 92 3d 60 07 78 3d 04 be d0 bd ad 70 82 bd
       0.07137745 0.06055391 -0.101924926 -0.063691474
0001a0 fc b6 b3 bd 53 fe 20 3a 55 6f 06 bd 0a 69 21 bd
       -0.08775136 0.0006141413 -0.03282102 -0.039406814
0001b0 ab 9e c8 3c 92 be a9 bd 07 90 96 bc c0 f0 7f bd
       0.024489721 -0.082883015 -0.018379224 -0.062485456
0001c0 d9 12 14 be 47 2a b0 bd 7e c5 e9 3c 6a 4f 9a 3d
       -0.14460315 -0.08601814 0.028536554 0.07534678
0001d0 6f 6c c2 bd f8 f7 c2 bd 9f 8e be bc e3 9a ca 3b
       -0.09493338 -0.095199525 -0.023261366 0.0061830147
0001e0 b8 ec 29 bd e2 ab ed 3c 02 ae 86 bd e1 81 26 bd
       -0.04148552 0.029012624 -0.06576158 -0.040651206
0001f0 fd 2e a4 bd a3 5f 9d bd 67 09 46 bc df d1 8b bc
       -0.08016775 -0.07684257 -0.012087203 -0.017067848
000200 d7 c5 91 bd 84 10 2a bd 93 c4 7e bd 30 67 a6 bd
       -0.07117813 -0.041519657 -0.062199187 -0.0812515
000210 9b bd 1f bd 42 69 33 bd 5b 9d 51 bd 89 d0 23 3d
       -0.03899918 -0.043801554 -0.051175456 0.039993796
000220 00 0a e9 bd 0e 63 e4 bc e9 2f ab bd bc 8f 9e bd
       -0.113788605 -0.027879264 -0.083587475 -0.07742259
000230 da 59 a1 bd cc 2f c6 bd e1 1c 79 bd 32 4c ed bd
       -0.07878466 -0.09677085 -0.060818557 -0.11586799
000240 65 a8 0a bd b6 72 29 bc 83 96 8d bd 06 f5 b9 bd
       -0.033852 -0.010342291 -0.069134735 -0.09079938
000250 ea bc 59 3d 94 d4 cd bd 1e ec 6a bc 33 27 55 bd
       0.053158678 -0.10050312 -0.014338521 -0.052039336
000260 e4 82 68 3d b0 76 a9 bd a3 da 17 be f4 2a 47 bd
       0.056765452 -0.08274591 -0.14829497 -0.048624948
000270 42 dc 9a 3b 4f 33 73 bd 5e 2e 19 3d 8a 98 20 be
       0.004725964 -0.059375104 0.037397735 -0.15683189
000280 b7 46 d0 bd 98 77 08 3c a1 bb 47 3c 6a a9 1b 3d
       -0.10169738 0.008329295 0.01219073 0.038003363
000290 84 e3 04 3d 66 c3 e4 bd 72 1c 05 be 75 a9 d4 bc
       0.03244354 -0.11170082 -0.12999132 -0.02595971
0002a0 64 0b 76 bd cd 1d 96 bd 87 fb f4 bc 16 c4 99 3c
       -0.060069457 -0.07329903 -0.029905094 0.018770259
0002b0 54 ec cc bd 54 43 0b ba a3 34 dc bd b3 71 11 3b
       -0.100060135 -0.0005312462 -0.10752227 0.0022193014
0002c0 00 7e 7b 3c e9 a5 e4 bd e3 20 e0 3b dd 38 b9 bd
       0.015349865 -0.11164457 0.006839858 -0.09044049
0002d0 21 23 c1 bd 20 c8 09 bb 4f 9e c1 3c d0 b0 28 3d
       -0.094305284 -0.0021023825 0.023635058 0.041184247
0002e0 4d 2a b5 bd c2 28 ba bd a3 0d d3 bd 00 05 09 be
       -0.08845959 -0.09089805 -0.103053354 -0.13380814
0002f0 f0 b2 18 be 45 7b 20 bd 7a 39 1e bd 28 fc c7 bd
       -0.14912009 -0.03918006 -0.038629033 -0.09764892
000300 a8 0f 04 be 4a 9a 81 3b d6 fe 24 bd ee 5d 7a bc
       -0.12896597 0.0039551603 -0.040282093 -0.015281184
000310 14 49 02 3d 14 a4 ba bc 5f 4a 09 ba 36 ef 4d 3d
       0.031807974 -0.022783317 -0.00052372174 0.050276957
000320 82 63 36 39 7e 24 32 bf 26 e3 4d 3f 0f 1a 4f be
       0.00017393942 -0.6958693 0.80424726 -0.20224784
000330 50 91 8b 3e e7 5c 2f bf b6 7b 6a 3e 4f 49 be 3e
       0.27259302 -0.6850113 0.22898754 0.37165305
000340 aa 3a 8c 3b 69 99 0d bf 45 97 83 3d 64 6b a2 3d
       0.0042794542 -0.5531221 0.06425337 0.079306394
000350 f3 5f 46 3e 8f 10 6a bf 25 c3 c6 be 8b 92 16 3f
       0.19372539 -0.91431516 -0.38820758 0.58817357
000360 3f 7b 25 be 10 f1 52 3e d0 74 26 be 24 02 c3 3e
       -0.16160296 0.2059977 -0.16255498 0.3808757
000370 d8 44 9c 3d 7b 2f 04 bf 0d 7a d0 be d4 15 18 3f
       0.076303184 -0.5163495 -0.40718117 0.5940831
000380 e6 a8 64 3c 33 82 10 bf 44 e5 88 3d 47 84 4a 3e
       0.013956284 -0.5644867 0.06684354 0.19777022
000390 31 e0 ba 3c 3d b1 36 3e 0c be 1d bf 27 f6 d0 3d
       0.02281198 0.17841049 -0.61618114 0.102032
0003a0 85 21 c4 3e ba f4 c4 be 0b 3d f7 3d 52 10 c1 bd
       0.38306823 -0.38467962 0.1207219 -0.09426941
0003b0 ab f3 24 3e b1 94 8d 3e 38 e9 2a 3e b4 58 92 be
       0.16108577 0.27652505 0.16690528 -0.285833
0003c0 69 de 8d 3e b2 5c f2 3e 62 79 c7 3e f9 f4 bd be
       0.27708748 0.47336346 0.38959795 -0.37100962
0003d0 0b ba 5e 3e 07 3f 2d be 7d 49 90 3e c0 88 86 3d
       0.21750657 -0.16918574 0.28181067 0.06569052
0003e0 0b 16 20 3e d7 7b c4 3d e2 e6 15 be c0 f9 e9 3d
       0.15633409 0.09593933 -0.14638856 0.11424589
0003f0 f4 a4 ef 3e 00 c3 d6 3e c1 fb 5b bf 5f c1 04 bf
       0.46805537 0.41945648 -0.8593102 -0.5185756

fc2.bias f4 [96]
000000 c1 17 d4 3e 79 fa c8 bd 54 81 bd 3c 88 48 98 3d
       0.41424373 -0.09813399 0.023132958 0.07435709
000010 ec 1a 3e 3f 63 aa db bd 65 a3 aa 3e ea b5 4e 3f
       0.7425983 -0.10725858 0.33327785 0.8074633
000020 cc aa 19 bd 0f e5 15 3f a9 ba 12 3e a5 dd 22 be
       -0.0375164 0.5855264 0.14329018 -0.15904863
000030 be 82 47 be da 38 bd 3e c1 2d 16 be 2d 8d 88 bd
       -0.19483468 0.36957437 -0.14665891 -0.06667552
000040 b8 43 a8 3e a5 af 2a 3f 1f 9b 05 3f c0 d1 76 be
       0.32864165 0.6667426 0.5218982 -0.24103451
000050 35 3b 1c be 69 6f 1b be c9 e5 2e be 68 83 2a 3e
       -0.1525696 -0.15179218 -0.17079844 0.1665169
000060 1e c2 4f 3e 22 f2 a6 be d7 d6 a8 3e c0 42 0a be
       0.20288894 -0.32606608 0.3297641 -0.13502026
000070 d0 f2 fa be 92 7a 49 3e 1a ac ec 3e d9 7e e9 be
       -0.49013376 0.19675663 0.46225053 -0.4560459
000080 c9 1c df 3e 20 cf 4e 3e 52 f5 9f 3e a0 97 81 3e
       0.4357665 0.201962 0.31241852 0.25310993
000090 ab 30 82 3e 5e 0b 8b be f6 f1 41 be 58 18 f8 bd
       0.25427756 -0.2715711 -0.18939957 -0.12114018
0000a0 d0 5b 14 be b8 22 2a 3f 66 51 33 3d eb 77 72 be
       -0.14488149 0.66459227 0.0437788 -0.23678558
0000b0 c7 b3 04 bf 12 78 2d be d0 cc 5e be f4 ca 67 3f
       -0.5183682 -0.16940334 -0.21757817 0.90544057
0000c0 57 18 35 3e 18 f1 97 bc 84 20 c3 3e 85 60 4d be
       0.17685066 -0.01854758 0.38110745 -0.2005635
0000d0 d5 90 7d 3e 67 e5 28 3e 1c 79 ce be 1e 34 dd 3e
       0.2476228 0.1649376 -0.40326774 0.43203825
0000e0 6f b2 06 be 84 3f f7 3e 33 34 ac 3e 0a 07 c3 be
       -0.13154005 0.48290646 0.33633575 -0.38091308
0000f0 c5 f0 0f be 0b fd a2 3e fe 17 aa be 66 89 a4 3e
       -0.1405669 0.3183368 -0.3322143 0.32136077
000100 de c0 0d 3e 57 2a be be b3 d8 2d 3e 5a 89 e0 3e
       0.13843104 -0.37141678 0.16977195 0.4385479
000110 ab 37 f2 bd 79 10 a5 bd 4a 21 9b be 24 10 19 be
       -0.11827024 -0.080597825 -0.30298835 -0.14947563
000120 13 49 ff 3d e3 62 91 3f d3 5f 25 be 6e 81 90 3e
       0.1246511 1.1358303 -0.16149835 0.28223747
000130 55 0a 99 be 83 12 08 3e 64 f2 8c be db 31 ab be
       -0.29890695 0.13288312 -0.2752868 -0.33436474
000140 2e 78 81 be 82 11 f5 bb 52 c4 39 be ee 15 c6 bd
       -0.25287002 -0.0074788937 -0.18141297 -0.096721515
000150 72 63 3d be 8d 6e ea bd 59 47 58 3f e2 af 0d be
       -0.18494967 -0.11446867 0.8448387 -0.13836625
000160 0f ad 19 be 23 72 d6 be 71 4b 99 be 04 17 7b be
       -0.15007423 -0.41883954 -0.2994037 -0.24520499
000170 5a f2 0d be 23 12 f9 be 31 56 40 be 20 e5 a8 3e
       -0.13861981 -0.4864665 -0.1878288 0.32987309

fc3.weight f4 [1, 96]
000000 e0 3f aa 3d 79 78 bc bb 6c 07 2e 3d 52 1d 99 3d
       0.083129644 -0.005751666 0.042487547 0.074762955
000010 71 b7 4a 3e ea c2 f3 bb 04 0c 88 3d 75 a2 8b 3e
       0.1979654 -0.007439007 0.06642917 0.27272382
000020 e7 9b 47 3e a2 99 f4 3d c5 3b b3 3d a7 37 dd bb
       0.19493066 0.11943366 0.087516345 -0.006751019
000030 1f 31 32 bc 07 d7 e2 3d c5 be e8 bc fe e0 c7 3d
       -0.010875969 0.110761695 -0.028411279 0.09759711
000040 23 1d 55 3d 09 35 ec 3d 63 10 91 3d b1 f8 82 bd
       0.05202974 0.11533553 0.07083204 -0.0639509
000050 24 7c 03 3c 51 66 a3 3c 57 47 63 bc 4e 99 96 3d
       0.008025203 0.01994625 -0.013871989 0.07353459
000060 31 b4 ad 3d 0c cf 1f be 16 ae 34 3d 00 07 73 3e
       0.084816344 -0.15606326 0.044111334 0.23733139
000070 89 2f 2d bd c1 15 9a 3d 41 6a 8d 3d b4 9f 25 bd
       -0.04228166 0.075236805 0.06905032 -0.040435508
000080 b3 4c bd 3d 73 5b 06 3d 66 77 b5 3d 4c 93 63 3d
       0.09243145 0.032802057 0.08860664 0.055560395
000090 57 bf 68 3d 33 25 10 be 5a 38 bf bb 3d 53 f3 bc
       0.0568231 -0.1407669 -0.005835575 -0.029702777
0000a0 3a 6d 8d bd cb 41 1a 3e 9b 40 81 be a4 bf 65 3d
       -0.06905599 0.1506416 -0.25244603 0.056090966
0000b0 39 d3 f7 bd e6 d7 b7 bd 28 38 84 bd 7b a0 37 3e
       -0.121008344 -0.08976726 -0.064560235 0.17932312
0000c0 0b 01 0d 3d 3b 2e 90 be d1 75 90 3d ec 3e 05 be
       0.034424823 -0.2816027 0.07053722 -0.13012284
0000d0 dc 77 5b 3d c6 c1 54 3d 41 d1 ea bd 6a 6e 2f 3d
       0.053581104 0.05194261 -0.11465693 0.04282991
0000e0 3c be 12 bc 00 2c b4 3d 3d 8c 75 3d 67 9c 04 be
       -0.008956488 0.08797455 0.059948195 -0.12950288
0000f0 de 17 be be e3 4e 0d 3d fe 90 a4 bd f4 d0 5a 3d
       -0.37127584 0.03449906 -0.080354676 0.05342193
000100 98 4c 5e 3d 70 ae 5b bd 85 c7 86 3d e9 b3 23 3e
       0.054272264 -0.053633153 0.06581024 0.15986599
000110 6d 07 7f 3b 75 54 ab bc 6f cf 98 bd 99 bb 05 3e
       0.0038914338 -0.020914296 -0.0746144 0.13059844
000120 69 b2 85 3d 5b ea a6 3e 35 fa c2 bd 6b e4 40 3d
       0.0652817 0.32600674 -0.095203795 0.047092836
000130 9f d7 ac bd b5 d1 6e 3d 35 c8 e0 bd fb bf 5f be
       -0.08439564 0.05830546 -0.109756865 -0.21850578
000140 c5 01 1c bd 22 8b 81 3d 7b 41 e4 3d 54 78 e1 bd
       -0.038087625 0.063253656 0.11145302 -0.11009279
000150 07 38 a1 3d c9 ee 1b be 34 fa 3b 3e 4d 42 48 3e
       0.078720145 -0.15227808 0.18357164 0.19556542
000160 5e 48 24 be 2a c3 96 bd f5 44 fb bd d5 d7 2d be
       -0.16043231 -0.07361443 -0.12269012 -0.16976865
000170 07 49 31 bc b9 b0 c9 bc 13 fa bd 3c 70 2e 91 3d
       -0.010820634 -0.0246204 0.023190534 0.070889354
